…
[2022-11-30 13:06:52,617] INFO: Warning: module EdgeConvBlock is treated as a zero-op.
[2022-11-30 13:06:52,618] INFO: Warning: module Dropout is treated as a zero-op.
[2022-11-30 13:06:52,618] INFO: Warning: module ParticleNet is treated as a zero-op.
[2022-11-30 13:06:52,618] INFO: Warning: module ParticleNetTagger is treated as a zero-op.
[2022-11-30 13:06:53,520] INFO: ParticleNetTagger(
  |0.579 M, 100.000% Params, 242.737 MMac, 100.000% MACs|
  (pf_conv): FeatureConv(
    |0.001 M, 0.128% Params, 38.8 KMac, 0.016% MACs|
    (conv): Sequential(
      |0.001 M, 0.128% Params, 38.8 KMac, 0.016% MACs|
      (0): BatchNorm1d(20, eps=1e-05, momentum=0.1, affine=True, track_running_stats=True, |0.0 M, 0.007% Params, 2.0 KMac, 0.001% MACs|)
      (1): Conv1d(20, 32, kernel_size=(1,), stride=(1,), bias=False, |0.001 M, 0.110% Params, 32.0 KMac, 0.013% MACs|)
      (2): BatchNorm1d(32, eps=1e-05, momentum=0.1, affine=True, track_running_stats=True, |0.0 M, 0.011% Params, 3.2 KMac, 0.001% MACs|)
      (3): ReLU(|0.0 M, 0.000% Params, 1.6 KMac, 0.001% MACs|)
    )
  )
  (sv_conv): FeatureConv(
    |0.0 M, 0.076% Params, 2.35 KMac, 0.001% MACs|
    (conv): Sequential(
      |0.0 M, 0.076% Params, 2.35 KMac, 0.001% MACs|
      (0): BatchNorm1d(11, eps=1e-05, momentum=0.1, affine=True, track_running_stats=True, |0.0 M, 0.004% Params, 110.0 Mac, 0.000% MACs|)
      (1): Conv1d(11, 32, kernel_size=(1,), stride=(1,), bias=False, |0.0 M, 0.061% Params, 1.76 KMac, 0.001% MACs|)
      (2): BatchNorm1d(32, eps=1e-05, momentum=0.1, affine=True, track_running_stats=True, |0.0 M, 0.011% Params, 320.0 Mac, 0.000% MACs|)
      (3): ReLU(|0.0 M, 0.000% Params, 160.0 Mac, 0.000% MACs|)
    )
  )
  (pn): ParticleNet(
    |0.578 M, 99.796% Params, 242.696 MMac, 99.983% MACs|
    (edge_convs): ModuleList(
      |0.305 M, 52.593% Params, 233.07 MMac, 96.017% MACs|
      (0): EdgeConvBlock(
        |0.015 M, 2.563% Params, 11.444 MMac, 4.714% MACs|
        (convs): ModuleList(
          |0.012 M, 2.121% Params, 10.813 MMac, 4.455% MACs|
          (0): Conv2d(64, 64, kernel_size=(1, 1), stride=(1, 1), bias=False, |0.004 M, 0.707% Params, 3.604 MMac, 1.485% MACs|)
          (1): Conv2d(64, 64, kernel_size=(1, 1), stride=(1, 1), bias=False, |0.004 M, 0.707% Params, 3.604 MMac, 1.485% MACs|)
          (2): Conv2d(64, 64, kernel_size=(1, 1), stride=(1, 1), bias=False, |0.004 M, 0.707% Params, 3.604 MMac, 1.485% MACs|)
        )
        (bns): ModuleList(
          |0.0 M, 0.066% Params, 337.92 KMac, 0.139% MACs|
          (0): BatchNorm2d(64, eps=1e-05, momentum=0.1, affine=True, track_running_stats=True, |0.0 M, 0.022% Params, 112.64 KMac, 0.046% MACs|)
          (1): BatchNorm2d(64, eps=1e-05, momentum=0.1, affine=True, track_running_stats=True, |0.0 M, 0.022% Params, 112.64 KMac, 0.046% MACs|)
          (2): BatchNorm2d(64, eps=1e-05, momentum=0.1, affine=True, track_running_stats=True, |0.0 M, 0.022% Params, 112.64 KMac, 0.046% MACs|)
        )
        (acts): ModuleList(
          |0.0 M, 0.000% Params, 168.96 KMac, 0.070% MACs|
          (0): ReLU(|0.0 M, 0.000% Params, 56.32 KMac, 0.023% MACs|)
          (1): ReLU(|0.0 M, 0.000% Params, 56.32 KMac, 0.023% MACs|)
          (2): ReLU(|0.0 M, 0.000% Params, 56.32 KMac, 0.023% MACs|)
        )
        (sc): Conv1d(32, 64, kernel_size=(1,), stride=(1,), bias=False, |0.002 M, 0.354% Params, 112.64 KMac, 0.046% MACs|)
        (sc_bn): BatchNorm1d(64, eps=1e-05, momentum=0.1, affine=True, track_running_stats=True, |0.0 M, 0.022% Params, 7.04 KMac, 0.003% MACs|)
        (sc_act): ReLU(|0.0 M, 0.000% Params, 3.52 KMac, 0.001% MACs|)
      )
      (1): EdgeConvBlock(
        |0.058 M, 10.077% Params, 44.739 MMac, 18.431% MACs|
        (convs): ModuleList(
          |0.049 M, 8.486% Params, 43.254 MMac, 17.819% MACs|
          (0): Conv2d(128, 128, kernel_size=(1, 1), stride=(1, 1), bias=False, |0.016 M, 2.829% Params, 14.418 MMac, 5.940% MACs|)
          (1): Conv2d(128, 128, kernel_size=(1, 1), stride=(1, 1), bias=False, |0.016 M, 2.829% Params, 14.418 MMac, 5.940% MACs|)
          (2): Conv2d(128, 128, kernel_size=(1, 1), stride=(1, 1), bias=False, |0.016 M, 2.829% Params, 14.418 MMac, 5.940% MACs|)
        )
        (bns): ModuleList(
          |0.001 M, 0.133% Params, 675.84 KMac, 0.278% MACs|
          (0): BatchNorm2d(128, eps=1e-05, momentum=0.1, affine=True, track_running_stats=True, |0.0 M, 0.044% Params, 225.28 KMac, 0.093% MACs|)
          (1): BatchNorm2d(128, eps=1e-05, momentum=0.1, affine=True, track_running_stats=True, |0.0 M, 0.044% Params, 225.28 KMac, 0.093% MACs|)
          (2): BatchNorm2d(128, eps=1e-05, momentum=0.1, affine=True, track_running_stats=True, |0.0 M, 0.044% Params, 225.28 KMac, 0.093% MACs|)
        )
        (acts): ModuleList(
          |0.0 M, 0.000% Params, 337.92 KMac, 0.139% MACs|
          (0): ReLU(|0.0 M, 0.000% Params, 112.64 KMac, 0.046% MACs|)
          (1): ReLU(|0.0 M, 0.000% Params, 112.64 KMac, 0.046% MACs|)
          (2): ReLU(|0.0 M, 0.000% Params, 112.64 KMac, 0.046% MACs|)
        )
        (sc): Conv1d(64, 128, kernel_size=(1,), stride=(1,), bias=False, |0.008 M, 1.414% Params, 450.56 KMac, 0.186% MACs|)
        (sc_bn): BatchNorm1d(128, eps=1e-05, momentum=0.1, affine=True, track_running_stats=True, |0.0 M, 0.044% Params, 14.08 KMac, 0.006% MACs|)
        (sc_act): ReLU(|0.0 M, 0.000% Params, 7.04 KMac, 0.003% MACs|)
      )
      (2): EdgeConvBlock(
        |0.231 M, 39.953% Params, 176.887 MMac, 72.872% MACs|
        (convs): ModuleList(
          |0.197 M, 33.943% Params, 173.015 MMac, 71.277% MACs|
          (0): Conv2d(256, 256, kernel_size=(1, 1), stride=(1, 1), bias=False, |0.066 M, 11.314% Params, 57.672 MMac, 23.759% MACs|)
          (1): Conv2d(256, 256, kernel_size=(1, 1), stride=(1, 1), bias=False, |0.066 M, 11.314% Params, 57.672 MMac, 23.759% MACs|)
          (2): Conv2d(256, 256, kernel_size=(1, 1), stride=(1, 1), bias=False, |0.066 M, 11.314% Params, 57.672 MMac, 23.759% MACs|)
        )
        (bns): ModuleList(
          |0.002 M, 0.265% Params, 1.352 MMac, 0.557% MACs|
          (0): BatchNorm2d(256, eps=1e-05, momentum=0.1, affine=True, track_running_stats=True, |0.001 M, 0.088% Params, 450.56 KMac, 0.186% MACs|)
          (1): BatchNorm2d(256, eps=1e-05, momentum=0.1, affine=True, track_running_stats=True, |0.001 M, 0.088% Params, 450.56 KMac, 0.186% MACs|)
          (2): BatchNorm2d(256, eps=1e-05, momentum=0.1, affine=True, track_running_stats=True, |0.001 M, 0.088% Params, 450.56 KMac, 0.186% MACs|)
        )
        (acts): ModuleList(
          |0.0 M, 0.000% Params, 675.84 KMac, 0.278% MACs|
          (0): ReLU(|0.0 M, 0.000% Params, 225.28 KMac, 0.093% MACs|)
          (1): ReLU(|0.0 M, 0.000% Params, 225.28 KMac, 0.093% MACs|)
          (2): ReLU(|0.0 M, 0.000% Params, 225.28 KMac, 0.093% MACs|)
        )
        (sc): Conv1d(128, 256, kernel_size=(1,), stride=(1,), bias=False, |0.033 M, 5.657% Params, 1.802 MMac, 0.742% MACs|)
        (sc_bn): BatchNorm1d(256, eps=1e-05, momentum=0.1, affine=True, track_running_stats=True, |0.001 M, 0.088% Params, 28.16 KMac, 0.012% MACs|)
        (sc_act): ReLU(|0.0 M, 0.000% Params, 14.08 KMac, 0.006% MACs|)
      )
    )
    (fusion_block): Sequential(
      |0.173 M, 29.832% Params, 9.525 MMac, 3.924% MACs|
      (0): Conv1d(448, 384, kernel_size=(1,), stride=(1,), bias=False, |0.172 M, 29.700% Params, 9.462 MMac, 3.898% MACs|)
      (1): BatchNorm1d(384, eps=1e-05, momentum=0.1, affine=True, track_running_stats=True, |0.001 M, 0.133% Params, 42.24 KMac, 0.017% MACs|)
      (2): ReLU(|0.0 M, 0.000% Params, 21.12 KMac, 0.009% MACs|)
    )
    (fc): Sequential(
      |0.101 M, 17.370% Params, 100.872 KMac, 0.042% MACs|
      (0): Sequential(
        |0.099 M, 17.015% Params, 98.816 KMac, 0.041% MACs|
        (0): Linear(in_features=384, out_features=256, bias=True, |0.099 M, 17.015% Params, 98.56 KMac, 0.041% MACs|)
        (1): ReLU(|0.0 M, 0.000% Params, 256.0 Mac, 0.000% MACs|)
        (2): Dropout(p=0.1, inplace=False, |0.0 M, 0.000% Params, 0.0 Mac, 0.000% MACs|)
      )
      (1): Linear(in_features=256, out_features=8, bias=True, |0.002 M, 0.355% Params, 2.056 KMac, 0.001% MACs|)
    )
  )
)
[2022-11-30 13:06:53,523] INFO: Computational complexity:       242.74 MMac
[2022-11-30 13:06:53,523] INFO: Number of parameters:           579.24 k
[2022-11-30 13:06:53,524] INFO: Using loss function CrossEntropyLoss() with options {}
[2022-11-30 13:06:55,073] INFO: Optimizer options: {}
[2022-11-30 13:06:55,078] INFO: --------------------------------------------------
…
