…
[2022-11-29 16:46:26,239] INFO: Warning: module EdgeFeatureConvBlock is treated as a zero-op.
[2022-11-29 16:46:26,240] INFO: Warning: module Dropout is treated as a zero-op.
[2022-11-29 16:46:26,240] INFO: Warning: module ParticleNetEdge is treated as a zero-op.
[2022-11-29 16:46:26,240] INFO: Warning: module ParticleNetEdgeTagger is treated as a zero-op.
[2022-11-29 16:46:27,353] INFO: ParticleNetEdgeTagger(
  |0.594 M, 100.000% Params, 313.31 MMac, 100.000% MACs|
  (pf_conv): FeatureConv(
    |0.001 M, 0.125% Params, 38.8 KMac, 0.012% MACs|
    (conv): Sequential(
      |0.001 M, 0.125% Params, 38.8 KMac, 0.012% MACs|
      (0): BatchNorm1d(20, eps=1e-05, momentum=0.1, affine=True, track_running_stats=True, |0.0 M, 0.007% Params, 2.0 KMac, 0.001% MACs|)
      (1): Conv1d(20, 32, kernel_size=(1,), stride=(1,), bias=False, |0.001 M, 0.108% Params, 32.0 KMac, 0.010% MACs|)
      (2): BatchNorm1d(32, eps=1e-05, momentum=0.1, affine=True, track_running_stats=True, |0.0 M, 0.011% Params, 3.2 KMac, 0.001% MACs|)
      (3): ReLU(|0.0 M, 0.000% Params, 1.6 KMac, 0.001% MACs|)
    )
  )
  (sv_conv): FeatureConv(
    |0.0 M, 0.074% Params, 2.35 KMac, 0.001% MACs|
    (conv): Sequential(
      |0.0 M, 0.074% Params, 2.35 KMac, 0.001% MACs|
      (0): BatchNorm1d(11, eps=1e-05, momentum=0.1, affine=True, track_running_stats=True, |0.0 M, 0.004% Params, 110.0 Mac, 0.000% MACs|)
      (1): Conv1d(11, 32, kernel_size=(1,), stride=(1,), bias=False, |0.0 M, 0.059% Params, 1.76 KMac, 0.001% MACs|)
      (2): BatchNorm1d(32, eps=1e-05, momentum=0.1, affine=True, track_running_stats=True, |0.0 M, 0.011% Params, 320.0 Mac, 0.000% MACs|)
      (3): ReLU(|0.0 M, 0.000% Params, 160.0 Mac, 0.000% MACs|)
    )
  )
  (pn): ParticleNetEdge(
    |0.593 M, 99.801% Params, 313.269 MMac, 99.987% MACs|
    (edge_convs): ModuleList(
      |0.305 M, 51.279% Params, 300.872 MMac, 96.030% MACs|
      (0): EdgeFeatureConvBlock(
        |0.015 M, 2.499% Params, 14.773 MMac, 4.715% MACs|
        (convs): ModuleList(
          |0.012 M, 2.068% Params, 13.959 MMac, 4.455% MACs|
          (0): Conv2d(64, 64, kernel_size=(1, 1), stride=(1, 1), bias=False, |0.004 M, 0.689% Params, 4.653 MMac, 1.485% MACs|)
          (1): Conv2d(64, 64, kernel_size=(1, 1), stride=(1, 1), bias=False, |0.004 M, 0.689% Params, 4.653 MMac, 1.485% MACs|)
          (2): Conv2d(64, 64, kernel_size=(1, 1), stride=(1, 1), bias=False, |0.004 M, 0.689% Params, 4.653 MMac, 1.485% MACs|)
        )
        (bns): ModuleList(
          |0.0 M, 0.065% Params, 436.224 KMac, 0.139% MACs|
          (0): BatchNorm2d(64, eps=1e-05, momentum=0.1, affine=True, track_running_stats=True, |0.0 M, 0.022% Params, 145.408 KMac, 0.046% MACs|)
          (1): BatchNorm2d(64, eps=1e-05, momentum=0.1, affine=True, track_running_stats=True, |0.0 M, 0.022% Params, 145.408 KMac, 0.046% MACs|)
          (2): BatchNorm2d(64, eps=1e-05, momentum=0.1, affine=True, track_running_stats=True, |0.0 M, 0.022% Params, 145.408 KMac, 0.046% MACs|)
        )
        (acts): ModuleList(
          |0.0 M, 0.000% Params, 218.112 KMac, 0.070% MACs|
          (0): ReLU(|0.0 M, 0.000% Params, 72.704 KMac, 0.023% MACs|)
          (1): ReLU(|0.0 M, 0.000% Params, 72.704 KMac, 0.023% MACs|)
          (2): ReLU(|0.0 M, 0.000% Params, 72.704 KMac, 0.023% MACs|)
        )
        (sc): Conv1d(32, 64, kernel_size=(1,), stride=(1,), bias=False, |0.002 M, 0.345% Params, 145.408 KMac, 0.046% MACs|)
        (sc_bn): BatchNorm1d(64, eps=1e-05, momentum=0.1, affine=True, track_running_stats=True, |0.0 M, 0.022% Params, 9.088 KMac, 0.003% MACs|)
        (sc_act): ReLU(|0.0 M, 0.000% Params, 4.544 KMac, 0.001% MACs|)
      )
      (1): EdgeFeatureConvBlock(
        |0.058 M, 9.825% Params, 57.754 MMac, 18.434% MACs|
        (convs): ModuleList(
          |0.049 M, 8.274% Params, 55.837 MMac, 17.822% MACs|
          (0): Conv2d(128, 128, kernel_size=(1, 1), stride=(1, 1), bias=False, |0.016 M, 2.758% Params, 18.612 MMac, 5.941% MACs|)
          (1): Conv2d(128, 128, kernel_size=(1, 1), stride=(1, 1), bias=False, |0.016 M, 2.758% Params, 18.612 MMac, 5.941% MACs|)
          (2): Conv2d(128, 128, kernel_size=(1, 1), stride=(1, 1), bias=False, |0.016 M, 2.758% Params, 18.612 MMac, 5.941% MACs|)
        )
        (bns): ModuleList(
          |0.001 M, 0.129% Params, 872.448 KMac, 0.278% MACs|
          (0): BatchNorm2d(128, eps=1e-05, momentum=0.1, affine=True, track_running_stats=True, |0.0 M, 0.043% Params, 290.816 KMac, 0.093% MACs|)
          (1): BatchNorm2d(128, eps=1e-05, momentum=0.1, affine=True, track_running_stats=True, |0.0 M, 0.043% Params, 290.816 KMac, 0.093% MACs|)
          (2): BatchNorm2d(128, eps=1e-05, momentum=0.1, affine=True, track_running_stats=True, |0.0 M, 0.043% Params, 290.816 KMac, 0.093% MACs|)
        )
        (acts): ModuleList(
          |0.0 M, 0.000% Params, 436.224 KMac, 0.139% MACs|
          (0): ReLU(|0.0 M, 0.000% Params, 145.408 KMac, 0.046% MACs|)
          (1): ReLU(|0.0 M, 0.000% Params, 145.408 KMac, 0.046% MACs|)
          (2): ReLU(|0.0 M, 0.000% Params, 145.408 KMac, 0.046% MACs|)
        )
        (sc): Conv1d(64, 128, kernel_size=(1,), stride=(1,), bias=False, |0.008 M, 1.379% Params, 581.632 KMac, 0.186% MACs|)
        (sc_bn): BatchNorm1d(128, eps=1e-05, momentum=0.1, affine=True, track_running_stats=True, |0.0 M, 0.043% Params, 18.176 KMac, 0.006% MACs|)
        (sc_act): ReLU(|0.0 M, 0.000% Params, 9.088 KMac, 0.003% MACs|)
      )
      (2): EdgeFeatureConvBlock(
        |0.231 M, 38.955% Params, 228.345 MMac, 72.882% MACs|
        (convs): ModuleList(
          |0.197 M, 33.094% Params, 223.347 MMac, 71.286% MACs|
          (0): Conv2d(256, 256, kernel_size=(1, 1), stride=(1, 1), bias=False, |0.066 M, 11.031% Params, 74.449 MMac, 23.762% MACs|)
          (1): Conv2d(256, 256, kernel_size=(1, 1), stride=(1, 1), bias=False, |0.066 M, 11.031% Params, 74.449 MMac, 23.762% MACs|)
          (2): Conv2d(256, 256, kernel_size=(1, 1), stride=(1, 1), bias=False, |0.066 M, 11.031% Params, 74.449 MMac, 23.762% MACs|)
        )
        (bns): ModuleList(
          |0.002 M, 0.259% Params, 1.745 MMac, 0.557% MACs|
          (0): BatchNorm2d(256, eps=1e-05, momentum=0.1, affine=True, track_running_stats=True, |0.001 M, 0.086% Params, 581.632 KMac, 0.186% MACs|)
          (1): BatchNorm2d(256, eps=1e-05, momentum=0.1, affine=True, track_running_stats=True, |0.001 M, 0.086% Params, 581.632 KMac, 0.186% MACs|)
          (2): BatchNorm2d(256, eps=1e-05, momentum=0.1, affine=True, track_running_stats=True, |0.001 M, 0.086% Params, 581.632 KMac, 0.186% MACs|)
        )
        (acts): ModuleList(
          |0.0 M, 0.000% Params, 872.448 KMac, 0.278% MACs|
          (0): ReLU(|0.0 M, 0.000% Params, 290.816 KMac, 0.093% MACs|)
          (1): ReLU(|0.0 M, 0.000% Params, 290.816 KMac, 0.093% MACs|)
          (2): ReLU(|0.0 M, 0.000% Params, 290.816 KMac, 0.093% MACs|)
        )
        (sc): Conv1d(128, 256, kernel_size=(1,), stride=(1,), bias=False, |0.033 M, 5.516% Params, 2.327 MMac, 0.743% MACs|)
        (sc_bn): BatchNorm1d(256, eps=1e-05, momentum=0.1, affine=True, track_running_stats=True, |0.001 M, 0.086% Params, 36.352 KMac, 0.012% MACs|)
        (sc_act): ReLU(|0.0 M, 0.000% Params, 18.176 KMac, 0.006% MACs|)
      )
    )
    (edge_feature_convs): EdgeFeatureConvBlock(
      |0.015 M, 2.499% Params, 0.0 Mac, 0.000% MACs|
      (convs): ModuleList(
        |0.012 M, 2.068% Params, 0.0 Mac, 0.000% MACs|
        (0): Conv2d(64, 64, kernel_size=(1, 1), stride=(1, 1), bias=False, |0.004 M, 0.689% Params, 0.0 Mac, 0.000% MACs|)
        (1): Conv2d(64, 64, kernel_size=(1, 1), stride=(1, 1), bias=False, |0.004 M, 0.689% Params, 0.0 Mac, 0.000% MACs|)
        (2): Conv2d(64, 64, kernel_size=(1, 1), stride=(1, 1), bias=False, |0.004 M, 0.689% Params, 0.0 Mac, 0.000% MACs|)
      )
      (bns): ModuleList(
        |0.0 M, 0.065% Params, 0.0 Mac, 0.000% MACs|
        (0): BatchNorm2d(64, eps=1e-05, momentum=0.1, affine=True, track_running_stats=True, |0.0 M, 0.022% Params, 0.0 Mac, 0.000% MACs|)
        (1): BatchNorm2d(64, eps=1e-05, momentum=0.1, affine=True, track_running_stats=True, |0.0 M, 0.022% Params, 0.0 Mac, 0.000% MACs|)
        (2): BatchNorm2d(64, eps=1e-05, momentum=0.1, affine=True, track_running_stats=True, |0.0 M, 0.022% Params, 0.0 Mac, 0.000% MACs|)
      )
      (acts): ModuleList(
        |0.0 M, 0.000% Params, 0.0 Mac, 0.000% MACs|
        (0): ReLU(|0.0 M, 0.000% Params, 0.0 Mac, 0.000% MACs|)
        (1): ReLU(|0.0 M, 0.000% Params, 0.0 Mac, 0.000% MACs|)
        (2): ReLU(|0.0 M, 0.000% Params, 0.0 Mac, 0.000% MACs|)
      )
      (sc): Conv1d(32, 64, kernel_size=(1,), stride=(1,), bias=False, |0.002 M, 0.345% Params, 0.0 Mac, 0.000% MACs|)
      (sc_bn): BatchNorm1d(64, eps=1e-05, momentum=0.1, affine=True, track_running_stats=True, |0.0 M, 0.022% Params, 0.0 Mac, 0.000% MACs|)
      (sc_act): ReLU(|0.0 M, 0.000% Params, 0.0 Mac, 0.000% MACs|)
    )
    (fusion_block): Sequential(
      |0.173 M, 29.087% Params, 12.296 MMac, 3.925% MACs|
      (0): Conv1d(448, 384, kernel_size=(1,), stride=(1,), bias=False, |0.172 M, 28.957% Params, 12.214 MMac, 3.898% MACs|)
      (1): BatchNorm1d(384, eps=1e-05, momentum=0.1, affine=True, track_running_stats=True, |0.001 M, 0.129% Params, 54.528 KMac, 0.017% MACs|)
      (2): ReLU(|0.0 M, 0.000% Params, 27.264 KMac, 0.009% MACs|)
    )
    (fc): Sequential(
      |0.101 M, 16.936% Params, 100.872 KMac, 0.032% MACs|
      (0): Sequential(
        |0.099 M, 16.590% Params, 98.816 KMac, 0.032% MACs|
        (0): Linear(in_features=384, out_features=256, bias=True, |0.099 M, 16.590% Params, 98.56 KMac, 0.031% MACs|)
        (1): ReLU(|0.0 M, 0.000% Params, 256.0 Mac, 0.000% MACs|)
        (2): Dropout(p=0.1, inplace=False, |0.0 M, 0.000% Params, 0.0 Mac, 0.000% MACs|)
      )
      (1): Linear(in_features=256, out_features=8, bias=True, |0.002 M, 0.346% Params, 2.056 KMac, 0.001% MACs|)
    )
  )
)
[2022-11-29 16:46:27,357] INFO: Computational complexity:       313.31 MMac
[2022-11-29 16:46:27,357] INFO: Number of parameters:           594.09 k
[2022-11-29 16:46:27,357] INFO: Using loss function CrossEntropyLoss() with options {}
[2022-11-29 16:46:41,544] INFO: Optimizer options: {}
[2022-11-29 16:46:41,589] INFO: --------------------------------------------------
…
