…
[2022-11-30 20:12:09,773] INFO: Warning: module EdgeConvBlock is treated as a zero-op.
[2022-11-30 20:12:09,773] INFO: Warning: module Dropout is treated as a zero-op.
[2022-11-30 20:12:09,774] INFO: Warning: module ParticleNet is treated as a zero-op.
[2022-11-30 20:12:09,774] INFO: Warning: module ParticleNetTagger is treated as a zero-op.
[2022-11-30 20:12:10,661] INFO: ParticleNetTagger(
  |0.233 M, 100.000% Params, 50.642 MMac, 100.000% MACs|
  (pf_conv): FeatureConv(
    |0.001 M, 0.320% Params, 38.8 KMac, 0.077% MACs|
    (conv): Sequential(
      |0.001 M, 0.320% Params, 38.8 KMac, 0.077% MACs|
      (0): BatchNorm1d(20, eps=1e-05, momentum=0.1, affine=True, track_running_stats=True, |0.0 M, 0.017% Params, 2.0 KMac, 0.004% MACs|)
      (1): Conv1d(20, 32, kernel_size=(1,), stride=(1,), bias=False, |0.001 M, 0.275% Params, 32.0 KMac, 0.063% MACs|)
      (2): BatchNorm1d(32, eps=1e-05, momentum=0.1, affine=True, track_running_stats=True, |0.0 M, 0.028% Params, 3.2 KMac, 0.006% MACs|)
      (3): ReLU(|0.0 M, 0.000% Params, 1.6 KMac, 0.003% MACs|)
    )
  )
  (sv_conv): FeatureConv(
    |0.0 M, 0.188% Params, 2.35 KMac, 0.005% MACs|
    (conv): Sequential(
      |0.0 M, 0.188% Params, 2.35 KMac, 0.005% MACs|
      (0): BatchNorm1d(11, eps=1e-05, momentum=0.1, affine=True, track_running_stats=True, |0.0 M, 0.009% Params, 110.0 Mac, 0.000% MACs|)
      (1): Conv1d(11, 32, kernel_size=(1,), stride=(1,), bias=False, |0.0 M, 0.151% Params, 1.76 KMac, 0.003% MACs|)
      (2): BatchNorm1d(32, eps=1e-05, momentum=0.1, affine=True, track_running_stats=True, |0.0 M, 0.028% Params, 320.0 Mac, 0.001% MACs|)
      (3): ReLU(|0.0 M, 0.000% Params, 160.0 Mac, 0.000% MACs|)
    )
  )
  (pn): ParticleNet(
    |0.231 M, 99.492% Params, 50.601 MMac, 99.919% MACs|
    (edge_convs): ModuleList(
      |0.123 M, 52.936% Params, 46.469 MMac, 91.761% MACs|
      (0): EdgeConvBlock(
        |0.015 M, 6.383% Params, 5.783 MMac, 11.420% MACs|
        (convs): ModuleList(
          |0.012 M, 5.283% Params, 5.407 MMac, 10.676% MACs|
          (0): Conv2d(64, 64, kernel_size=(1, 1), stride=(1, 1), bias=False, |0.004 M, 1.761% Params, 1.802 MMac, 3.559% MACs|)
          (1): Conv2d(64, 64, kernel_size=(1, 1), stride=(1, 1), bias=False, |0.004 M, 1.761% Params, 1.802 MMac, 3.559% MACs|)
          (2): Conv2d(64, 64, kernel_size=(1, 1), stride=(1, 1), bias=False, |0.004 M, 1.761% Params, 1.802 MMac, 3.559% MACs|)
        )
        (bns): ModuleList(
          |0.0 M, 0.165% Params, 168.96 KMac, 0.334% MACs|
          (0): BatchNorm2d(64, eps=1e-05, momentum=0.1, affine=True, track_running_stats=True, |0.0 M, 0.055% Params, 56.32 KMac, 0.111% MACs|)
          (1): BatchNorm2d(64, eps=1e-05, momentum=0.1, affine=True, track_running_stats=True, |0.0 M, 0.055% Params, 56.32 KMac, 0.111% MACs|)
          (2): BatchNorm2d(64, eps=1e-05, momentum=0.1, affine=True, track_running_stats=True, |0.0 M, 0.055% Params, 56.32 KMac, 0.111% MACs|)
        )
        (acts): ModuleList(
          |0.0 M, 0.000% Params, 84.48 KMac, 0.167% MACs|
          (0): ReLU(|0.0 M, 0.000% Params, 28.16 KMac, 0.056% MACs|)
          (1): ReLU(|0.0 M, 0.000% Params, 28.16 KMac, 0.056% MACs|)
          (2): ReLU(|0.0 M, 0.000% Params, 28.16 KMac, 0.056% MACs|)
        )
        (sc): Conv1d(32, 64, kernel_size=(1,), stride=(1,), bias=False, |0.002 M, 0.880% Params, 112.64 KMac, 0.222% MACs|)
        (sc_bn): BatchNorm1d(64, eps=1e-05, momentum=0.1, affine=True, track_running_stats=True, |0.0 M, 0.055% Params, 7.04 KMac, 0.014% MACs|)
        (sc_act): ReLU(|0.0 M, 0.000% Params, 3.52 KMac, 0.007% MACs|)
      )
      (1): EdgeConvBlock(
        |0.038 M, 16.178% Params, 14.251 MMac, 28.140% MACs|
        (convs): ModuleList(
          |0.031 M, 13.206% Params, 13.517 MMac, 26.691% MACs|
          (0): Conv2d(128, 96, kernel_size=(1, 1), stride=(1, 1), bias=False, |0.012 M, 5.283% Params, 5.407 MMac, 10.676% MACs|)
          (1): Conv2d(96, 96, kernel_size=(1, 1), stride=(1, 1), bias=False, |0.009 M, 3.962% Params, 4.055 MMac, 8.007% MACs|)
          (2): Conv2d(96, 96, kernel_size=(1, 1), stride=(1, 1), bias=False, |0.009 M, 3.962% Params, 4.055 MMac, 8.007% MACs|)
        )
        (bns): ModuleList(
          |0.001 M, 0.248% Params, 253.44 KMac, 0.500% MACs|
          (0): BatchNorm2d(96, eps=1e-05, momentum=0.1, affine=True, track_running_stats=True, |0.0 M, 0.083% Params, 84.48 KMac, 0.167% MACs|)
          (1): BatchNorm2d(96, eps=1e-05, momentum=0.1, affine=True, track_running_stats=True, |0.0 M, 0.083% Params, 84.48 KMac, 0.167% MACs|)
          (2): BatchNorm2d(96, eps=1e-05, momentum=0.1, affine=True, track_running_stats=True, |0.0 M, 0.083% Params, 84.48 KMac, 0.167% MACs|)
        )
        (acts): ModuleList(
          |0.0 M, 0.000% Params, 126.72 KMac, 0.250% MACs|
          (0): ReLU(|0.0 M, 0.000% Params, 42.24 KMac, 0.083% MACs|)
          (1): ReLU(|0.0 M, 0.000% Params, 42.24 KMac, 0.083% MACs|)
          (2): ReLU(|0.0 M, 0.000% Params, 42.24 KMac, 0.083% MACs|)
        )
        (sc): Conv1d(64, 96, kernel_size=(1,), stride=(1,), bias=False, |0.006 M, 2.641% Params, 337.92 KMac, 0.667% MACs|)
        (sc_bn): BatchNorm1d(96, eps=1e-05, momentum=0.1, affine=True, track_running_stats=True, |0.0 M, 0.083% Params, 10.56 KMac, 0.021% MACs|)
        (sc_act): ReLU(|0.0 M, 0.000% Params, 5.28 KMac, 0.010% MACs|)
      )
      (2): EdgeConvBlock(
        |0.071 M, 30.375% Params, 26.435 MMac, 52.200% MACs|
        (convs): ModuleList(
          |0.057 M, 24.652% Params, 25.231 MMac, 49.823% MACs|
          (0): Conv2d(192, 128, kernel_size=(1, 1), stride=(1, 1), bias=False, |0.025 M, 10.565% Params, 10.813 MMac, 21.353% MACs|)
          (1): Conv2d(128, 128, kernel_size=(1, 1), stride=(1, 1), bias=False, |0.016 M, 7.043% Params, 7.209 MMac, 14.235% MACs|)
          (2): Conv2d(128, 128, kernel_size=(1, 1), stride=(1, 1), bias=False, |0.016 M, 7.043% Params, 7.209 MMac, 14.235% MACs|)
        )
        (bns): ModuleList(
          |0.001 M, 0.330% Params, 337.92 KMac, 0.667% MACs|
          (0): BatchNorm2d(128, eps=1e-05, momentum=0.1, affine=True, track_running_stats=True, |0.0 M, 0.110% Params, 112.64 KMac, 0.222% MACs|)
          (1): BatchNorm2d(128, eps=1e-05, momentum=0.1, affine=True, track_running_stats=True, |0.0 M, 0.110% Params, 112.64 KMac, 0.222% MACs|)
          (2): BatchNorm2d(128, eps=1e-05, momentum=0.1, affine=True, track_running_stats=True, |0.0 M, 0.110% Params, 112.64 KMac, 0.222% MACs|)
        )
        (acts): ModuleList(
          |0.0 M, 0.000% Params, 168.96 KMac, 0.334% MACs|
          (0): ReLU(|0.0 M, 0.000% Params, 56.32 KMac, 0.111% MACs|)
          (1): ReLU(|0.0 M, 0.000% Params, 56.32 KMac, 0.111% MACs|)
          (2): ReLU(|0.0 M, 0.000% Params, 56.32 KMac, 0.111% MACs|)
        )
        (sc): Conv1d(96, 128, kernel_size=(1,), stride=(1,), bias=False, |0.012 M, 5.283% Params, 675.84 KMac, 1.335% MACs|)
        (sc_bn): BatchNorm1d(128, eps=1e-05, momentum=0.1, affine=True, track_running_stats=True, |0.0 M, 0.110% Params, 14.08 KMac, 0.028% MACs|)
        (sc_act): ReLU(|0.0 M, 0.000% Params, 7.04 KMac, 0.014% MACs|)
      )
    )
    (fusion_block): Sequential(
      |0.074 M, 31.915% Params, 4.097 MMac, 8.091% MACs|
      (0): Conv1d(288, 256, kernel_size=(1,), stride=(1,), bias=False, |0.074 M, 31.695% Params, 4.055 MMac, 8.007% MACs|)
      (1): BatchNorm1d(256, eps=1e-05, momentum=0.1, affine=True, track_running_stats=True, |0.001 M, 0.220% Params, 28.16 KMac, 0.056% MACs|)
      (2): ReLU(|0.0 M, 0.000% Params, 14.08 KMac, 0.028% MACs|)
    )
    (fc): Sequential(
      |0.034 M, 14.641% Params, 34.185 KMac, 0.068% MACs|
      (0): Sequential(
        |0.033 M, 14.142% Params, 33.024 KMac, 0.065% MACs|
        (0): Linear(in_features=256, out_features=128, bias=True, |0.033 M, 14.142% Params, 32.896 KMac, 0.065% MACs|)
        (1): ReLU(|0.0 M, 0.000% Params, 128.0 Mac, 0.000% MACs|)
        (2): Dropout(p=0.1, inplace=False, |0.0 M, 0.000% Params, 0.0 Mac, 0.000% MACs|)
      )
      (1): Linear(in_features=128, out_features=9, bias=True, |0.001 M, 0.499% Params, 1.161 KMac, 0.002% MACs|)
    )
  )
)
[2022-11-30 20:12:10,663] INFO: Computational complexity:       50.64 MMac
[2022-11-30 20:12:10,664] INFO: Number of parameters:           232.62 k
[2022-11-30 20:12:10,664] INFO: Using loss function CrossEntropyLoss() with options {}
[2022-11-30 20:12:22,734] INFO: Optimizer options: {}
[2022-11-30 20:12:22,777] INFO: --------------------------------------------------
…
