…
[2022-12-02 12:40:21,009] INFO: [0;37mWarning: module EdgeFeatureConvBlock is treated as a zero-op.[0m
[2022-12-02 12:40:21,009] INFO: [0;37mWarning: module Dropout is treated as a zero-op.[0m
[2022-12-02 12:40:21,009] INFO: [0;37mWarning: module ParticleNetEdge is treated as a zero-op.[0m
[2022-12-02 12:40:21,009] INFO: [0;37mWarning: module ParticleNetEdgeTagger is treated as a zero-op.[0m
[2022-12-02 12:40:21,023] INFO: [0;37mParticleNetEdgeTagger(
  |0.335 M, 100.000% Params, 50.642 MMac, 100.000% MACs|
  (pf_conv): FeatureConv(
    |0.001 M, 0.222% Params, 38.8 KMac, 0.077% MACs|
    (conv): Sequential(
      |0.001 M, 0.222% Params, 38.8 KMac, 0.077% MACs|
      (0): BatchNorm1d(20, eps=1e-05, momentum=0.1, affine=True, track_running_stats=True, |0.0 M, 0.012% Params, 2.0 KMac, 0.004% MACs|)
      (1): Conv1d(20, 32, kernel_size=(1,), stride=(1,), bias=False, |0.001 M, 0.191% Params, 32.0 KMac, 0.063% MACs|)
      (2): BatchNorm1d(32, eps=1e-05, momentum=0.1, affine=True, track_running_stats=True, |0.0 M, 0.019% Params, 3.2 KMac, 0.006% MACs|)
      (3): ReLU(|0.0 M, 0.000% Params, 1.6 KMac, 0.003% MACs|)
    )
  )
  (sv_conv): FeatureConv(
    |0.0 M, 0.131% Params, 2.35 KMac, 0.005% MACs|
    (conv): Sequential(
      |0.0 M, 0.131% Params, 2.35 KMac, 0.005% MACs|
      (0): BatchNorm1d(11, eps=1e-05, momentum=0.1, affine=True, track_running_stats=True, |0.0 M, 0.007% Params, 110.0 Mac, 0.000% MACs|)
      (1): Conv1d(11, 32, kernel_size=(1,), stride=(1,), bias=False, |0.0 M, 0.105% Params, 1.76 KMac, 0.003% MACs|)
      (2): BatchNorm1d(32, eps=1e-05, momentum=0.1, affine=True, track_running_stats=True, |0.0 M, 0.019% Params, 320.0 Mac, 0.001% MACs|)
      (3): ReLU(|0.0 M, 0.000% Params, 160.0 Mac, 0.000% MACs|)
    )
  )
  (pn): ParticleNetEdge(
    |0.333 M, 99.647% Params, 50.601 MMac, 99.919% MACs|
    (edge_feat_convs): ModuleList(
      |0.225 M, 67.322% Params, 46.469 MMac, 91.761% MACs|
      (0): EdgeFeatureConvBlock(
        |0.027 M, 8.109% Params, 5.783 MMac, 11.420% MACs|
        (convs): ModuleList(
          |0.012 M, 3.672% Params, 5.407 MMac, 10.676% MACs|
          (0): Conv2d(64, 64, kernel_size=(1, 1), stride=(1, 1), bias=False, |0.004 M, 1.224% Params, 1.802 MMac, 3.559% MACs|)
          (1): Conv2d(64, 64, kernel_size=(1, 1), stride=(1, 1), bias=False, |0.004 M, 1.224% Params, 1.802 MMac, 3.559% MACs|)
          (2): Conv2d(64, 64, kernel_size=(1, 1), stride=(1, 1), bias=False, |0.004 M, 1.224% Params, 1.802 MMac, 3.559% MACs|)
        )
        (convs_ef): ModuleList(
          |0.01 M, 2.984% Params, 0.0 Mac, 0.000% MACs|
          (0): Conv2d(28, 64, kernel_size=(1, 1), stride=(1, 1), bias=False, |0.002 M, 0.536% Params, 0.0 Mac, 0.000% MACs|)
          (1): Conv2d(64, 64, kernel_size=(1, 1), stride=(1, 1), bias=False, |0.004 M, 1.224% Params, 0.0 Mac, 0.000% MACs|)
          (2): Conv2d(64, 64, kernel_size=(1, 1), stride=(1, 1), bias=False, |0.004 M, 1.224% Params, 0.0 Mac, 0.000% MACs|)
        )
        (bns): ModuleList(
          |0.0 M, 0.115% Params, 168.96 KMac, 0.334% MACs|
          (0): BatchNorm2d(64, eps=1e-05, momentum=0.1, affine=True, track_running_stats=True, |0.0 M, 0.038% Params, 56.32 KMac, 0.111% MACs|)
          (1): BatchNorm2d(64, eps=1e-05, momentum=0.1, affine=True, track_running_stats=True, |0.0 M, 0.038% Params, 56.32 KMac, 0.111% MACs|)
          (2): BatchNorm2d(64, eps=1e-05, momentum=0.1, affine=True, track_running_stats=True, |0.0 M, 0.038% Params, 56.32 KMac, 0.111% MACs|)
        )
        (bns_ef): ModuleList(
          |0.0 M, 0.115% Params, 0.0 Mac, 0.000% MACs|
          (0): BatchNorm2d(64, eps=1e-05, momentum=0.1, affine=True, track_running_stats=True, |0.0 M, 0.038% Params, 0.0 Mac, 0.000% MACs|)
          (1): BatchNorm2d(64, eps=1e-05, momentum=0.1, affine=True, track_running_stats=True, |0.0 M, 0.038% Params, 0.0 Mac, 0.000% MACs|)
          (2): BatchNorm2d(64, eps=1e-05, momentum=0.1, affine=True, track_running_stats=True, |0.0 M, 0.038% Params, 0.0 Mac, 0.000% MACs|)
        )
        (acts): ModuleList(
          |0.0 M, 0.000% Params, 84.48 KMac, 0.167% MACs|
          (0): ReLU(|0.0 M, 0.000% Params, 28.16 KMac, 0.056% MACs|)
          (1): ReLU(|0.0 M, 0.000% Params, 28.16 KMac, 0.056% MACs|)
          (2): ReLU(|0.0 M, 0.000% Params, 28.16 KMac, 0.056% MACs|)
        )
        (acts_ef): ModuleList(
          |0.0 M, 0.000% Params, 0.0 Mac, 0.000% MACs|
          (0): ReLU(|0.0 M, 0.000% Params, 0.0 Mac, 0.000% MACs|)
          (1): ReLU(|0.0 M, 0.000% Params, 0.0 Mac, 0.000% MACs|)
          (2): ReLU(|0.0 M, 0.000% Params, 0.0 Mac, 0.000% MACs|)
        )
        (sc): Conv1d(32, 64, kernel_size=(1,), stride=(1,), bias=False, |0.002 M, 0.612% Params, 112.64 KMac, 0.222% MACs|)
        (sc_bn): BatchNorm1d(64, eps=1e-05, momentum=0.1, affine=True, track_running_stats=True, |0.0 M, 0.038% Params, 7.04 KMac, 0.014% MACs|)
        (sc_ef): Conv1d(28, 64, kernel_size=(1,), stride=(1,), bias=False, |0.002 M, 0.536% Params, 0.0 Mac, 0.000% MACs|)
        (sc_bn_ef): BatchNorm1d(64, eps=1e-05, momentum=0.1, affine=True, track_running_stats=True, |0.0 M, 0.038% Params, 0.0 Mac, 0.000% MACs|)
        (sc_act): ReLU(|0.0 M, 0.000% Params, 3.52 KMac, 0.007% MACs|)
        (sc_act_ef): ReLU(|0.0 M, 0.000% Params, 0.0 Mac, 0.000% MACs|)
      )
      (1): EdgeFeatureConvBlock(
        |0.069 M, 20.656% Params, 14.251 MMac, 28.140% MACs|
        (convs): ModuleList(
          |0.031 M, 9.180% Params, 13.517 MMac, 26.691% MACs|
          (0): Conv2d(128, 96, kernel_size=(1, 1), stride=(1, 1), bias=False, |0.012 M, 3.672% Params, 5.407 MMac, 10.676% MACs|)
          (1): Conv2d(96, 96, kernel_size=(1, 1), stride=(1, 1), bias=False, |0.009 M, 2.754% Params, 4.055 MMac, 8.007% MACs|)
          (2): Conv2d(96, 96, kernel_size=(1, 1), stride=(1, 1), bias=False, |0.009 M, 2.754% Params, 4.055 MMac, 8.007% MACs|)
        )
        (convs_ef): ModuleList(
          |0.025 M, 7.344% Params, 0.0 Mac, 0.000% MACs|
          (0): Conv2d(64, 96, kernel_size=(1, 1), stride=(1, 1), bias=False, |0.006 M, 1.836% Params, 0.0 Mac, 0.000% MACs|)
          (1): Conv2d(96, 96, kernel_size=(1, 1), stride=(1, 1), bias=False, |0.009 M, 2.754% Params, 0.0 Mac, 0.000% MACs|)
          (2): Conv2d(96, 96, kernel_size=(1, 1), stride=(1, 1), bias=False, |0.009 M, 2.754% Params, 0.0 Mac, 0.000% MACs|)
        )
        (bns): ModuleList(
          |0.001 M, 0.172% Params, 253.44 KMac, 0.500% MACs|
          (0): BatchNorm2d(96, eps=1e-05, momentum=0.1, affine=True, track_running_stats=True, |0.0 M, 0.057% Params, 84.48 KMac, 0.167% MACs|)
          (1): BatchNorm2d(96, eps=1e-05, momentum=0.1, affine=True, track_running_stats=True, |0.0 M, 0.057% Params, 84.48 KMac, 0.167% MACs|)
          (2): BatchNorm2d(96, eps=1e-05, momentum=0.1, affine=True, track_running_stats=True, |0.0 M, 0.057% Params, 84.48 KMac, 0.167% MACs|)
        )
        (bns_ef): ModuleList(
          |0.001 M, 0.172% Params, 0.0 Mac, 0.000% MACs|
          (0): BatchNorm2d(96, eps=1e-05, momentum=0.1, affine=True, track_running_stats=True, |0.0 M, 0.057% Params, 0.0 Mac, 0.000% MACs|)
          (1): BatchNorm2d(96, eps=1e-05, momentum=0.1, affine=True, track_running_stats=True, |0.0 M, 0.057% Params, 0.0 Mac, 0.000% MACs|)
          (2): BatchNorm2d(96, eps=1e-05, momentum=0.1, affine=True, track_running_stats=True, |0.0 M, 0.057% Params, 0.0 Mac, 0.000% MACs|)
        )
        (acts): ModuleList(
          |0.0 M, 0.000% Params, 126.72 KMac, 0.250% MACs|
          (0): ReLU(|0.0 M, 0.000% Params, 42.24 KMac, 0.083% MACs|)
          (1): ReLU(|0.0 M, 0.000% Params, 42.24 KMac, 0.083% MACs|)
          (2): ReLU(|0.0 M, 0.000% Params, 42.24 KMac, 0.083% MACs|)
        )
        (acts_ef): ModuleList(
          |0.0 M, 0.000% Params, 0.0 Mac, 0.000% MACs|
          (0): ReLU(|0.0 M, 0.000% Params, 0.0 Mac, 0.000% MACs|)
          (1): ReLU(|0.0 M, 0.000% Params, 0.0 Mac, 0.000% MACs|)
          (2): ReLU(|0.0 M, 0.000% Params, 0.0 Mac, 0.000% MACs|)
        )
        (sc): Conv1d(64, 96, kernel_size=(1,), stride=(1,), bias=False, |0.006 M, 1.836% Params, 337.92 KMac, 0.667% MACs|)
        (sc_bn): BatchNorm1d(96, eps=1e-05, momentum=0.1, affine=True, track_running_stats=True, |0.0 M, 0.057% Params, 10.56 KMac, 0.021% MACs|)
        (sc_ef): Conv1d(64, 96, kernel_size=(1,), stride=(1,), bias=False, |0.006 M, 1.836% Params, 0.0 Mac, 0.000% MACs|)
        (sc_bn_ef): BatchNorm1d(96, eps=1e-05, momentum=0.1, affine=True, track_running_stats=True, |0.0 M, 0.057% Params, 0.0 Mac, 0.000% MACs|)
        (sc_act): ReLU(|0.0 M, 0.000% Params, 5.28 KMac, 0.010% MACs|)
        (sc_act_ef): ReLU(|0.0 M, 0.000% Params, 0.0 Mac, 0.000% MACs|)
      )
      (2): EdgeFeatureConvBlock(
        |0.129 M, 38.557% Params, 26.435 MMac, 52.200% MACs|
        (convs): ModuleList(
          |0.057 M, 17.137% Params, 25.231 MMac, 49.823% MACs|
          (0): Conv2d(192, 128, kernel_size=(1, 1), stride=(1, 1), bias=False, |0.025 M, 7.344% Params, 10.813 MMac, 21.353% MACs|)
          (1): Conv2d(128, 128, kernel_size=(1, 1), stride=(1, 1), bias=False, |0.016 M, 4.896% Params, 7.209 MMac, 14.235% MACs|)
          (2): Conv2d(128, 128, kernel_size=(1, 1), stride=(1, 1), bias=False, |0.016 M, 4.896% Params, 7.209 MMac, 14.235% MACs|)
        )
        (convs_ef): ModuleList(
          |0.045 M, 13.464% Params, 0.0 Mac, 0.000% MACs|
          (0): Conv2d(96, 128, kernel_size=(1, 1), stride=(1, 1), bias=False, |0.012 M, 3.672% Params, 0.0 Mac, 0.000% MACs|)
          (1): Conv2d(128, 128, kernel_size=(1, 1), stride=(1, 1), bias=False, |0.016 M, 4.896% Params, 0.0 Mac, 0.000% MACs|)
          (2): Conv2d(128, 128, kernel_size=(1, 1), stride=(1, 1), bias=False, |0.016 M, 4.896% Params, 0.0 Mac, 0.000% MACs|)
        )
        (bns): ModuleList(
          |0.001 M, 0.230% Params, 337.92 KMac, 0.667% MACs|
          (0): BatchNorm2d(128, eps=1e-05, momentum=0.1, affine=True, track_running_stats=True, |0.0 M, 0.077% Params, 112.64 KMac, 0.222% MACs|)
          (1): BatchNorm2d(128, eps=1e-05, momentum=0.1, affine=True, track_running_stats=True, |0.0 M, 0.077% Params, 112.64 KMac, 0.222% MACs|)
          (2): BatchNorm2d(128, eps=1e-05, momentum=0.1, affine=True, track_running_stats=True, |0.0 M, 0.077% Params, 112.64 KMac, 0.222% MACs|)
        )
        (bns_ef): ModuleList(
          |0.001 M, 0.230% Params, 0.0 Mac, 0.000% MACs|
          (0): BatchNorm2d(128, eps=1e-05, momentum=0.1, affine=True, track_running_stats=True, |0.0 M, 0.077% Params, 0.0 Mac, 0.000% MACs|)
          (1): BatchNorm2d(128, eps=1e-05, momentum=0.1, affine=True, track_running_stats=True, |0.0 M, 0.077% Params, 0.0 Mac, 0.000% MACs|)
          (2): BatchNorm2d(128, eps=1e-05, momentum=0.1, affine=True, track_running_stats=True, |0.0 M, 0.077% Params, 0.0 Mac, 0.000% MACs|)
        )
        (acts): ModuleList(
          |0.0 M, 0.000% Params, 168.96 KMac, 0.334% MACs|
          (0): ReLU(|0.0 M, 0.000% Params, 56.32 KMac, 0.111% MACs|)
          (1): ReLU(|0.0 M, 0.000% Params, 56.32 KMac, 0.111% MACs|)
          (2): ReLU(|0.0 M, 0.000% Params, 56.32 KMac, 0.111% MACs|)
        )
        (acts_ef): ModuleList(
          |0.0 M, 0.000% Params, 0.0 Mac, 0.000% MACs|
          (0): ReLU(|0.0 M, 0.000% Params, 0.0 Mac, 0.000% MACs|)
          (1): ReLU(|0.0 M, 0.000% Params, 0.0 Mac, 0.000% MACs|)
          (2): ReLU(|0.0 M, 0.000% Params, 0.0 Mac, 0.000% MACs|)
        )
        (sc): Conv1d(96, 128, kernel_size=(1,), stride=(1,), bias=False, |0.012 M, 3.672% Params, 675.84 KMac, 1.335% MACs|)
        (sc_bn): BatchNorm1d(128, eps=1e-05, momentum=0.1, affine=True, track_running_stats=True, |0.0 M, 0.077% Params, 14.08 KMac, 0.028% MACs|)
        (sc_ef): Conv1d(96, 128, kernel_size=(1,), stride=(1,), bias=False, |0.012 M, 3.672% Params, 0.0 Mac, 0.000% MACs|)
        (sc_bn_ef): BatchNorm1d(128, eps=1e-05, momentum=0.1, affine=True, track_running_stats=True, |0.0 M, 0.077% Params, 0.0 Mac, 0.000% MACs|)
        (sc_act): ReLU(|0.0 M, 0.000% Params, 7.04 KMac, 0.014% MACs|)
        (sc_act_ef): ReLU(|0.0 M, 0.000% Params, 0.0 Mac, 0.000% MACs|)
      )
    )
    (fusion_block): Sequential(
      |0.074 M, 22.186% Params, 4.097 MMac, 8.091% MACs|
      (0): Conv1d(288, 256, kernel_size=(1,), stride=(1,), bias=False, |0.074 M, 22.033% Params, 4.055 MMac, 8.007% MACs|)
      (1): BatchNorm1d(256, eps=1e-05, momentum=0.1, affine=True, track_running_stats=True, |0.001 M, 0.153% Params, 28.16 KMac, 0.056% MACs|)
      (2): ReLU(|0.0 M, 0.000% Params, 14.08 KMac, 0.028% MACs|)
    )
    (fc): Sequential(
      |0.034 M, 10.139% Params, 34.056 KMac, 0.067% MACs|
      (0): Sequential(
        |0.033 M, 9.831% Params, 33.024 KMac, 0.065% MACs|
        (0): Linear(in_features=256, out_features=128, bias=True, |0.033 M, 9.831% Params, 32.896 KMac, 0.065% MACs|)
        (1): ReLU(|0.0 M, 0.000% Params, 128.0 Mac, 0.000% MACs|)
        (2): Dropout(p=0.1, inplace=False, |0.0 M, 0.000% Params, 0.0 Mac, 0.000% MACs|)
      )
      (1): Linear(in_features=128, out_features=8, bias=True, |0.001 M, 0.308% Params, 1.032 KMac, 0.002% MACs|)
    )
  )
)[0m
[2022-12-02 12:40:21,025] INFO: Computational complexity:       50.64 MMac
[2022-12-02 12:40:21,025] INFO: Number of parameters:           334.63 k
[2022-12-02 12:40:21,025] INFO: Using loss function CrossEntropyLoss() with options {}
[2022-12-02 12:40:22,943] INFO: Optimizer options: {}
[2022-12-02 12:40:22,946] INFO: --------------------------------------------------
…
[2022-12-02 12:40:35,459] INFO: [0;37mWarning: module EdgeFeatureConvBlock is treated as a zero-op.[0m
[2022-12-02 12:40:35,460] INFO: [0;37mWarning: module Dropout is treated as a zero-op.[0m
[2022-12-02 12:40:35,460] INFO: [0;37mWarning: module ParticleNetEdge is treated as a zero-op.[0m
[2022-12-02 12:40:35,460] INFO: [0;37mWarning: module ParticleNetEdgeTagger is treated as a zero-op.[0m
[2022-12-02 12:40:35,473] INFO: [0;37mParticleNetEdgeTagger(
  |0.335 M, 100.000% Params, 57.997 MMac, 100.000% MACs|
  (pf_conv): FeatureConv(
    |0.001 M, 0.222% Params, 38.8 KMac, 0.067% MACs|
    (conv): Sequential(
      |0.001 M, 0.222% Params, 38.8 KMac, 0.067% MACs|
      (0): BatchNorm1d(20, eps=1e-05, momentum=0.1, affine=True, track_running_stats=True, |0.0 M, 0.012% Params, 2.0 KMac, 0.003% MACs|)
      (1): Conv1d(20, 32, kernel_size=(1,), stride=(1,), bias=False, |0.001 M, 0.191% Params, 32.0 KMac, 0.055% MACs|)
      (2): BatchNorm1d(32, eps=1e-05, momentum=0.1, affine=True, track_running_stats=True, |0.0 M, 0.019% Params, 3.2 KMac, 0.006% MACs|)
      (3): ReLU(|0.0 M, 0.000% Params, 1.6 KMac, 0.003% MACs|)
    )
  )
  (sv_conv): FeatureConv(
    |0.0 M, 0.131% Params, 2.35 KMac, 0.004% MACs|
    (conv): Sequential(
      |0.0 M, 0.131% Params, 2.35 KMac, 0.004% MACs|
      (0): BatchNorm1d(11, eps=1e-05, momentum=0.1, affine=True, track_running_stats=True, |0.0 M, 0.007% Params, 110.0 Mac, 0.000% MACs|)
      (1): Conv1d(11, 32, kernel_size=(1,), stride=(1,), bias=False, |0.0 M, 0.105% Params, 1.76 KMac, 0.003% MACs|)
      (2): BatchNorm1d(32, eps=1e-05, momentum=0.1, affine=True, track_running_stats=True, |0.0 M, 0.019% Params, 320.0 Mac, 0.001% MACs|)
      (3): ReLU(|0.0 M, 0.000% Params, 160.0 Mac, 0.000% MACs|)
    )
  )
  (pn): ParticleNetEdge(
    |0.333 M, 99.647% Params, 57.956 MMac, 99.929% MACs|
    (edge_feat_convs): ModuleList(
      |0.225 M, 67.322% Params, 53.228 MMac, 91.778% MACs|
      (0): EdgeFeatureConvBlock(
        |0.027 M, 8.109% Params, 6.625 MMac, 11.422% MACs|
        (convs): ModuleList(
          |0.012 M, 3.672% Params, 6.193 MMac, 10.678% MACs|
          (0): Conv2d(64, 64, kernel_size=(1, 1), stride=(1, 1), bias=False, |0.004 M, 1.224% Params, 2.064 MMac, 3.559% MACs|)
          (1): Conv2d(64, 64, kernel_size=(1, 1), stride=(1, 1), bias=False, |0.004 M, 1.224% Params, 2.064 MMac, 3.559% MACs|)
          (2): Conv2d(64, 64, kernel_size=(1, 1), stride=(1, 1), bias=False, |0.004 M, 1.224% Params, 2.064 MMac, 3.559% MACs|)
        )
        (convs_ef): ModuleList(
          |0.01 M, 2.984% Params, 0.0 Mac, 0.000% MACs|
          (0): Conv2d(28, 64, kernel_size=(1, 1), stride=(1, 1), bias=False, |0.002 M, 0.536% Params, 0.0 Mac, 0.000% MACs|)
          (1): Conv2d(64, 64, kernel_size=(1, 1), stride=(1, 1), bias=False, |0.004 M, 1.224% Params, 0.0 Mac, 0.000% MACs|)
          (2): Conv2d(64, 64, kernel_size=(1, 1), stride=(1, 1), bias=False, |0.004 M, 1.224% Params, 0.0 Mac, 0.000% MACs|)
        )
        (bns): ModuleList(
          |0.0 M, 0.115% Params, 193.536 KMac, 0.334% MACs|
          (0): BatchNorm2d(64, eps=1e-05, momentum=0.1, affine=True, track_running_stats=True, |0.0 M, 0.038% Params, 64.512 KMac, 0.111% MACs|)
          (1): BatchNorm2d(64, eps=1e-05, momentum=0.1, affine=True, track_running_stats=True, |0.0 M, 0.038% Params, 64.512 KMac, 0.111% MACs|)
          (2): BatchNorm2d(64, eps=1e-05, momentum=0.1, affine=True, track_running_stats=True, |0.0 M, 0.038% Params, 64.512 KMac, 0.111% MACs|)
        )
        (bns_ef): ModuleList(
          |0.0 M, 0.115% Params, 0.0 Mac, 0.000% MACs|
          (0): BatchNorm2d(64, eps=1e-05, momentum=0.1, affine=True, track_running_stats=True, |0.0 M, 0.038% Params, 0.0 Mac, 0.000% MACs|)
          (1): BatchNorm2d(64, eps=1e-05, momentum=0.1, affine=True, track_running_stats=True, |0.0 M, 0.038% Params, 0.0 Mac, 0.000% MACs|)
          (2): BatchNorm2d(64, eps=1e-05, momentum=0.1, affine=True, track_running_stats=True, |0.0 M, 0.038% Params, 0.0 Mac, 0.000% MACs|)
        )
        (acts): ModuleList(
          |0.0 M, 0.000% Params, 96.768 KMac, 0.167% MACs|
          (0): ReLU(|0.0 M, 0.000% Params, 32.256 KMac, 0.056% MACs|)
          (1): ReLU(|0.0 M, 0.000% Params, 32.256 KMac, 0.056% MACs|)
          (2): ReLU(|0.0 M, 0.000% Params, 32.256 KMac, 0.056% MACs|)
        )
        (acts_ef): ModuleList(
          |0.0 M, 0.000% Params, 0.0 Mac, 0.000% MACs|
          (0): ReLU(|0.0 M, 0.000% Params, 0.0 Mac, 0.000% MACs|)
          (1): ReLU(|0.0 M, 0.000% Params, 0.0 Mac, 0.000% MACs|)
          (2): ReLU(|0.0 M, 0.000% Params, 0.0 Mac, 0.000% MACs|)
        )
        (sc): Conv1d(32, 64, kernel_size=(1,), stride=(1,), bias=False, |0.002 M, 0.612% Params, 129.024 KMac, 0.222% MACs|)
        (sc_bn): BatchNorm1d(64, eps=1e-05, momentum=0.1, affine=True, track_running_stats=True, |0.0 M, 0.038% Params, 8.064 KMac, 0.014% MACs|)
        (sc_ef): Conv1d(28, 64, kernel_size=(1,), stride=(1,), bias=False, |0.002 M, 0.536% Params, 0.0 Mac, 0.000% MACs|)
        (sc_bn_ef): BatchNorm1d(64, eps=1e-05, momentum=0.1, affine=True, track_running_stats=True, |0.0 M, 0.038% Params, 0.0 Mac, 0.000% MACs|)
        (sc_act): ReLU(|0.0 M, 0.000% Params, 4.032 KMac, 0.007% MACs|)
        (sc_act_ef): ReLU(|0.0 M, 0.000% Params, 0.0 Mac, 0.000% MACs|)
      )
      (1): EdgeFeatureConvBlock(
        |0.069 M, 20.656% Params, 16.324 MMac, 28.146% MACs|
        (convs): ModuleList(
          |0.031 M, 9.180% Params, 15.483 MMac, 26.696% MACs|
          (0): Conv2d(128, 96, kernel_size=(1, 1), stride=(1, 1), bias=False, |0.012 M, 3.672% Params, 6.193 MMac, 10.678% MACs|)
          (1): Conv2d(96, 96, kernel_size=(1, 1), stride=(1, 1), bias=False, |0.009 M, 2.754% Params, 4.645 MMac, 8.009% MACs|)
          (2): Conv2d(96, 96, kernel_size=(1, 1), stride=(1, 1), bias=False, |0.009 M, 2.754% Params, 4.645 MMac, 8.009% MACs|)
        )
        (convs_ef): ModuleList(
          |0.025 M, 7.344% Params, 0.0 Mac, 0.000% MACs|
          (0): Conv2d(64, 96, kernel_size=(1, 1), stride=(1, 1), bias=False, |0.006 M, 1.836% Params, 0.0 Mac, 0.000% MACs|)
          (1): Conv2d(96, 96, kernel_size=(1, 1), stride=(1, 1), bias=False, |0.009 M, 2.754% Params, 0.0 Mac, 0.000% MACs|)
          (2): Conv2d(96, 96, kernel_size=(1, 1), stride=(1, 1), bias=False, |0.009 M, 2.754% Params, 0.0 Mac, 0.000% MACs|)
        )
        (bns): ModuleList(
          |0.001 M, 0.172% Params, 290.304 KMac, 0.501% MACs|
          (0): BatchNorm2d(96, eps=1e-05, momentum=0.1, affine=True, track_running_stats=True, |0.0 M, 0.057% Params, 96.768 KMac, 0.167% MACs|)
          (1): BatchNorm2d(96, eps=1e-05, momentum=0.1, affine=True, track_running_stats=True, |0.0 M, 0.057% Params, 96.768 KMac, 0.167% MACs|)
          (2): BatchNorm2d(96, eps=1e-05, momentum=0.1, affine=True, track_running_stats=True, |0.0 M, 0.057% Params, 96.768 KMac, 0.167% MACs|)
        )
        (bns_ef): ModuleList(
          |0.001 M, 0.172% Params, 0.0 Mac, 0.000% MACs|
          (0): BatchNorm2d(96, eps=1e-05, momentum=0.1, affine=True, track_running_stats=True, |0.0 M, 0.057% Params, 0.0 Mac, 0.000% MACs|)
          (1): BatchNorm2d(96, eps=1e-05, momentum=0.1, affine=True, track_running_stats=True, |0.0 M, 0.057% Params, 0.0 Mac, 0.000% MACs|)
          (2): BatchNorm2d(96, eps=1e-05, momentum=0.1, affine=True, track_running_stats=True, |0.0 M, 0.057% Params, 0.0 Mac, 0.000% MACs|)
        )
        (acts): ModuleList(
          |0.0 M, 0.000% Params, 145.152 KMac, 0.250% MACs|
          (0): ReLU(|0.0 M, 0.000% Params, 48.384 KMac, 0.083% MACs|)
          (1): ReLU(|0.0 M, 0.000% Params, 48.384 KMac, 0.083% MACs|)
          (2): ReLU(|0.0 M, 0.000% Params, 48.384 KMac, 0.083% MACs|)
        )
        (acts_ef): ModuleList(
          |0.0 M, 0.000% Params, 0.0 Mac, 0.000% MACs|
          (0): ReLU(|0.0 M, 0.000% Params, 0.0 Mac, 0.000% MACs|)
          (1): ReLU(|0.0 M, 0.000% Params, 0.0 Mac, 0.000% MACs|)
          (2): ReLU(|0.0 M, 0.000% Params, 0.0 Mac, 0.000% MACs|)
        )
        (sc): Conv1d(64, 96, kernel_size=(1,), stride=(1,), bias=False, |0.006 M, 1.836% Params, 387.072 KMac, 0.667% MACs|)
        (sc_bn): BatchNorm1d(96, eps=1e-05, momentum=0.1, affine=True, track_running_stats=True, |0.0 M, 0.057% Params, 12.096 KMac, 0.021% MACs|)
        (sc_ef): Conv1d(64, 96, kernel_size=(1,), stride=(1,), bias=False, |0.006 M, 1.836% Params, 0.0 Mac, 0.000% MACs|)
        (sc_bn_ef): BatchNorm1d(96, eps=1e-05, momentum=0.1, affine=True, track_running_stats=True, |0.0 M, 0.057% Params, 0.0 Mac, 0.000% MACs|)
        (sc_act): ReLU(|0.0 M, 0.000% Params, 6.048 KMac, 0.010% MACs|)
        (sc_act_ef): ReLU(|0.0 M, 0.000% Params, 0.0 Mac, 0.000% MACs|)
      )
      (2): EdgeFeatureConvBlock(
        |0.129 M, 38.557% Params, 30.28 MMac, 52.210% MACs|
        (convs): ModuleList(
          |0.057 M, 17.137% Params, 28.901 MMac, 49.833% MACs|
          (0): Conv2d(192, 128, kernel_size=(1, 1), stride=(1, 1), bias=False, |0.025 M, 7.344% Params, 12.386 MMac, 21.357% MACs|)
          (1): Conv2d(128, 128, kernel_size=(1, 1), stride=(1, 1), bias=False, |0.016 M, 4.896% Params, 8.258 MMac, 14.238% MACs|)
          (2): Conv2d(128, 128, kernel_size=(1, 1), stride=(1, 1), bias=False, |0.016 M, 4.896% Params, 8.258 MMac, 14.238% MACs|)
        )
        (convs_ef): ModuleList(
          |0.045 M, 13.464% Params, 0.0 Mac, 0.000% MACs|
          (0): Conv2d(96, 128, kernel_size=(1, 1), stride=(1, 1), bias=False, |0.012 M, 3.672% Params, 0.0 Mac, 0.000% MACs|)
          (1): Conv2d(128, 128, kernel_size=(1, 1), stride=(1, 1), bias=False, |0.016 M, 4.896% Params, 0.0 Mac, 0.000% MACs|)
          (2): Conv2d(128, 128, kernel_size=(1, 1), stride=(1, 1), bias=False, |0.016 M, 4.896% Params, 0.0 Mac, 0.000% MACs|)
        )
        (bns): ModuleList(
          |0.001 M, 0.230% Params, 387.072 KMac, 0.667% MACs|
          (0): BatchNorm2d(128, eps=1e-05, momentum=0.1, affine=True, track_running_stats=True, |0.0 M, 0.077% Params, 129.024 KMac, 0.222% MACs|)
          (1): BatchNorm2d(128, eps=1e-05, momentum=0.1, affine=True, track_running_stats=True, |0.0 M, 0.077% Params, 129.024 KMac, 0.222% MACs|)
          (2): BatchNorm2d(128, eps=1e-05, momentum=0.1, affine=True, track_running_stats=True, |0.0 M, 0.077% Params, 129.024 KMac, 0.222% MACs|)
        )
        (bns_ef): ModuleList(
          |0.001 M, 0.230% Params, 0.0 Mac, 0.000% MACs|
          (0): BatchNorm2d(128, eps=1e-05, momentum=0.1, affine=True, track_running_stats=True, |0.0 M, 0.077% Params, 0.0 Mac, 0.000% MACs|)
          (1): BatchNorm2d(128, eps=1e-05, momentum=0.1, affine=True, track_running_stats=True, |0.0 M, 0.077% Params, 0.0 Mac, 0.000% MACs|)
          (2): BatchNorm2d(128, eps=1e-05, momentum=0.1, affine=True, track_running_stats=True, |0.0 M, 0.077% Params, 0.0 Mac, 0.000% MACs|)
        )
        (acts): ModuleList(
          |0.0 M, 0.000% Params, 193.536 KMac, 0.334% MACs|
          (0): ReLU(|0.0 M, 0.000% Params, 64.512 KMac, 0.111% MACs|)
          (1): ReLU(|0.0 M, 0.000% Params, 64.512 KMac, 0.111% MACs|)
          (2): ReLU(|0.0 M, 0.000% Params, 64.512 KMac, 0.111% MACs|)
        )
        (acts_ef): ModuleList(
          |0.0 M, 0.000% Params, 0.0 Mac, 0.000% MACs|
          (0): ReLU(|0.0 M, 0.000% Params, 0.0 Mac, 0.000% MACs|)
          (1): ReLU(|0.0 M, 0.000% Params, 0.0 Mac, 0.000% MACs|)
          (2): ReLU(|0.0 M, 0.000% Params, 0.0 Mac, 0.000% MACs|)
        )
        (sc): Conv1d(96, 128, kernel_size=(1,), stride=(1,), bias=False, |0.012 M, 3.672% Params, 774.144 KMac, 1.335% MACs|)
        (sc_bn): BatchNorm1d(128, eps=1e-05, momentum=0.1, affine=True, track_running_stats=True, |0.0 M, 0.077% Params, 16.128 KMac, 0.028% MACs|)
        (sc_ef): Conv1d(96, 128, kernel_size=(1,), stride=(1,), bias=False, |0.012 M, 3.672% Params, 0.0 Mac, 0.000% MACs|)
        (sc_bn_ef): BatchNorm1d(128, eps=1e-05, momentum=0.1, affine=True, track_running_stats=True, |0.0 M, 0.077% Params, 0.0 Mac, 0.000% MACs|)
        (sc_act): ReLU(|0.0 M, 0.000% Params, 8.064 KMac, 0.014% MACs|)
        (sc_act_ef): ReLU(|0.0 M, 0.000% Params, 0.0 Mac, 0.000% MACs|)
      )
    )
    (fusion_block): Sequential(
      |0.074 M, 22.186% Params, 4.693 MMac, 8.092% MACs|
      (0): Conv1d(288, 256, kernel_size=(1,), stride=(1,), bias=False, |0.074 M, 22.033% Params, 4.645 MMac, 8.009% MACs|)
      (1): BatchNorm1d(256, eps=1e-05, momentum=0.1, affine=True, track_running_stats=True, |0.001 M, 0.153% Params, 32.256 KMac, 0.056% MACs|)
      (2): ReLU(|0.0 M, 0.000% Params, 16.128 KMac, 0.028% MACs|)
    )
    (fc): Sequential(
      |0.034 M, 10.139% Params, 34.056 KMac, 0.059% MACs|
      (0): Sequential(
        |0.033 M, 9.831% Params, 33.024 KMac, 0.057% MACs|
        (0): Linear(in_features=256, out_features=128, bias=True, |0.033 M, 9.831% Params, 32.896 KMac, 0.057% MACs|)
        (1): ReLU(|0.0 M, 0.000% Params, 128.0 Mac, 0.000% MACs|)
        (2): Dropout(p=0.1, inplace=False, |0.0 M, 0.000% Params, 0.0 Mac, 0.000% MACs|)
      )
      (1): Linear(in_features=128, out_features=8, bias=True, |0.001 M, 0.308% Params, 1.032 KMac, 0.002% MACs|)
    )
  )
)[0m
[2022-12-02 12:40:35,474] INFO: Computational complexity:       58.0 MMac
[2022-12-02 12:40:35,474] INFO: Number of parameters:           334.63 k
[2022-12-02 12:40:35,474] INFO: Using loss function CrossEntropyLoss() with options {}
[2022-12-02 12:40:35,942] INFO: Optimizer options: {}
[2022-12-02 12:40:35,944] INFO: --------------------------------------------------
…
