…
[2022-12-04 18:03:35,257] INFO: [0;37mWarning: module EdgeFeatureConvBlock is treated as a zero-op.[0m
[2022-12-04 18:03:35,258] INFO: [0;37mWarning: module Dropout is treated as a zero-op.[0m
[2022-12-04 18:03:35,258] INFO: [0;37mWarning: module ParticleNetEdge is treated as a zero-op.[0m
[2022-12-04 18:03:35,258] INFO: [0;37mWarning: module ParticleNetEdgeTagger is treated as a zero-op.[0m
[2022-12-04 18:03:36,265] INFO: [0;37mParticleNetEdgeTagger(
  |0.41 M, 100.000% Params, 51.374 MMac, 100.000% MACs|
  (pf_conv): FeatureConv(
    |0.001 M, 0.181% Params, 38.8 KMac, 0.076% MACs|
    (conv): Sequential(
      |0.001 M, 0.181% Params, 38.8 KMac, 0.076% MACs|
      (0): BatchNorm1d(20, eps=1e-05, momentum=0.1, affine=True, track_running_stats=True, |0.0 M, 0.010% Params, 2.0 KMac, 0.004% MACs|)
      (1): Conv1d(20, 32, kernel_size=(1,), stride=(1,), bias=False, |0.001 M, 0.156% Params, 32.0 KMac, 0.062% MACs|)
      (2): BatchNorm1d(32, eps=1e-05, momentum=0.1, affine=True, track_running_stats=True, |0.0 M, 0.016% Params, 3.2 KMac, 0.006% MACs|)
      (3): ReLU(|0.0 M, 0.000% Params, 1.6 KMac, 0.003% MACs|)
    )
  )
  (sv_conv): FeatureConv(
    |0.0 M, 0.107% Params, 2.35 KMac, 0.005% MACs|
    (conv): Sequential(
      |0.0 M, 0.107% Params, 2.35 KMac, 0.005% MACs|
      (0): BatchNorm1d(11, eps=1e-05, momentum=0.1, affine=True, track_running_stats=True, |0.0 M, 0.005% Params, 110.0 Mac, 0.000% MACs|)
      (1): Conv1d(11, 32, kernel_size=(1,), stride=(1,), bias=False, |0.0 M, 0.086% Params, 1.76 KMac, 0.003% MACs|)
      (2): BatchNorm1d(32, eps=1e-05, momentum=0.1, affine=True, track_running_stats=True, |0.0 M, 0.016% Params, 320.0 Mac, 0.001% MACs|)
      (3): ReLU(|0.0 M, 0.000% Params, 160.0 Mac, 0.000% MACs|)
    )
  )
  (pn): ParticleNetEdge(
    |0.409 M, 99.712% Params, 51.333 MMac, 99.920% MACs|
    (edge_feat_convs): ModuleList(
      |0.301 M, 73.339% Params, 47.201 MMac, 91.878% MACs|
      (0): EdgeFeatureConvBlock(
        |0.041 M, 9.924% Params, 6.516 MMac, 12.683% MACs|
        (convs): ModuleList(
          |0.014 M, 3.402% Params, 6.139 MMac, 11.949% MACs|
          (0): Conv2d(90, 64, kernel_size=(1, 1), stride=(1, 1), bias=False, |0.006 M, 1.404% Params, 2.534 MMac, 4.933% MACs|)
          (1): Conv2d(64, 64, kernel_size=(1, 1), stride=(1, 1), bias=False, |0.004 M, 0.999% Params, 1.802 MMac, 3.508% MACs|)
          (2): Conv2d(64, 64, kernel_size=(1, 1), stride=(1, 1), bias=False, |0.004 M, 0.999% Params, 1.802 MMac, 3.508% MACs|)
        )
        (convs_ef): ModuleList(
          |0.021 M, 5.103% Params, 0.0 Mac, 0.000% MACs|
          (0): Conv2d(26, 96, kernel_size=(1, 1), stride=(1, 1), bias=False, |0.002 M, 0.609% Params, 0.0 Mac, 0.000% MACs|)
          (1): Conv2d(96, 96, kernel_size=(1, 1), stride=(1, 1), bias=False, |0.009 M, 2.247% Params, 0.0 Mac, 0.000% MACs|)
          (2): Conv2d(96, 96, kernel_size=(1, 1), stride=(1, 1), bias=False, |0.009 M, 2.247% Params, 0.0 Mac, 0.000% MACs|)
        )
        (bns): ModuleList(
          |0.0 M, 0.094% Params, 168.96 KMac, 0.329% MACs|
          (0): BatchNorm2d(64, eps=1e-05, momentum=0.1, affine=True, track_running_stats=True, |0.0 M, 0.031% Params, 56.32 KMac, 0.110% MACs|)
          (1): BatchNorm2d(64, eps=1e-05, momentum=0.1, affine=True, track_running_stats=True, |0.0 M, 0.031% Params, 56.32 KMac, 0.110% MACs|)
          (2): BatchNorm2d(64, eps=1e-05, momentum=0.1, affine=True, track_running_stats=True, |0.0 M, 0.031% Params, 56.32 KMac, 0.110% MACs|)
        )
        (bns_ef): ModuleList(
          |0.001 M, 0.140% Params, 0.0 Mac, 0.000% MACs|
          (0): BatchNorm2d(96, eps=1e-05, momentum=0.1, affine=True, track_running_stats=True, |0.0 M, 0.047% Params, 0.0 Mac, 0.000% MACs|)
          (1): BatchNorm2d(96, eps=1e-05, momentum=0.1, affine=True, track_running_stats=True, |0.0 M, 0.047% Params, 0.0 Mac, 0.000% MACs|)
          (2): BatchNorm2d(96, eps=1e-05, momentum=0.1, affine=True, track_running_stats=True, |0.0 M, 0.047% Params, 0.0 Mac, 0.000% MACs|)
        )
        (acts): ModuleList(
          |0.0 M, 0.000% Params, 84.48 KMac, 0.164% MACs|
          (0): ReLU(|0.0 M, 0.000% Params, 28.16 KMac, 0.055% MACs|)
          (1): ReLU(|0.0 M, 0.000% Params, 28.16 KMac, 0.055% MACs|)
          (2): ReLU(|0.0 M, 0.000% Params, 28.16 KMac, 0.055% MACs|)
        )
        (acts_ef): ModuleList(
          |0.0 M, 0.000% Params, 0.0 Mac, 0.000% MACs|
          (0): ReLU(|0.0 M, 0.000% Params, 0.0 Mac, 0.000% MACs|)
          (1): ReLU(|0.0 M, 0.000% Params, 0.0 Mac, 0.000% MACs|)
          (2): ReLU(|0.0 M, 0.000% Params, 0.0 Mac, 0.000% MACs|)
        )
        (sc): Conv1d(32, 64, kernel_size=(1,), stride=(1,), bias=False, |0.002 M, 0.499% Params, 112.64 KMac, 0.219% MACs|)
        (sc_bn): BatchNorm1d(64, eps=1e-05, momentum=0.1, affine=True, track_running_stats=True, |0.0 M, 0.031% Params, 7.04 KMac, 0.014% MACs|)
        (sc_ef): Conv1d(26, 96, kernel_size=(1,), stride=(1,), bias=False, |0.002 M, 0.609% Params, 0.0 Mac, 0.000% MACs|)
        (sc_bn_ef): BatchNorm1d(96, eps=1e-05, momentum=0.1, affine=True, track_running_stats=True, |0.0 M, 0.047% Params, 0.0 Mac, 0.000% MACs|)
        (sc_act): ReLU(|0.0 M, 0.000% Params, 3.52 KMac, 0.007% MACs|)
        (sc_act_ef): ReLU(|0.0 M, 0.000% Params, 0.0 Mac, 0.000% MACs|)
      )
      (1): EdgeFeatureConvBlock(
        |0.096 M, 23.406% Params, 14.251 MMac, 27.739% MACs|
        (convs): ModuleList(
          |0.031 M, 7.490% Params, 13.517 MMac, 26.311% MACs|
          (0): Conv2d(128, 96, kernel_size=(1, 1), stride=(1, 1), bias=False, |0.012 M, 2.996% Params, 5.407 MMac, 10.524% MACs|)
          (1): Conv2d(96, 96, kernel_size=(1, 1), stride=(1, 1), bias=False, |0.009 M, 2.247% Params, 4.055 MMac, 7.893% MACs|)
          (2): Conv2d(96, 96, kernel_size=(1, 1), stride=(1, 1), bias=False, |0.009 M, 2.247% Params, 4.055 MMac, 7.893% MACs|)
        )
        (convs_ef): ModuleList(
          |0.045 M, 10.985% Params, 0.0 Mac, 0.000% MACs|
          (0): Conv2d(96, 128, kernel_size=(1, 1), stride=(1, 1), bias=False, |0.012 M, 2.996% Params, 0.0 Mac, 0.000% MACs|)
          (1): Conv2d(128, 128, kernel_size=(1, 1), stride=(1, 1), bias=False, |0.016 M, 3.995% Params, 0.0 Mac, 0.000% MACs|)
          (2): Conv2d(128, 128, kernel_size=(1, 1), stride=(1, 1), bias=False, |0.016 M, 3.995% Params, 0.0 Mac, 0.000% MACs|)
        )
        (bns): ModuleList(
          |0.001 M, 0.140% Params, 253.44 KMac, 0.493% MACs|
          (0): BatchNorm2d(96, eps=1e-05, momentum=0.1, affine=True, track_running_stats=True, |0.0 M, 0.047% Params, 84.48 KMac, 0.164% MACs|)
          (1): BatchNorm2d(96, eps=1e-05, momentum=0.1, affine=True, track_running_stats=True, |0.0 M, 0.047% Params, 84.48 KMac, 0.164% MACs|)
          (2): BatchNorm2d(96, eps=1e-05, momentum=0.1, affine=True, track_running_stats=True, |0.0 M, 0.047% Params, 84.48 KMac, 0.164% MACs|)
        )
        (bns_ef): ModuleList(
          |0.001 M, 0.187% Params, 0.0 Mac, 0.000% MACs|
          (0): BatchNorm2d(128, eps=1e-05, momentum=0.1, affine=True, track_running_stats=True, |0.0 M, 0.062% Params, 0.0 Mac, 0.000% MACs|)
          (1): BatchNorm2d(128, eps=1e-05, momentum=0.1, affine=True, track_running_stats=True, |0.0 M, 0.062% Params, 0.0 Mac, 0.000% MACs|)
          (2): BatchNorm2d(128, eps=1e-05, momentum=0.1, affine=True, track_running_stats=True, |0.0 M, 0.062% Params, 0.0 Mac, 0.000% MACs|)
        )
        (acts): ModuleList(
          |0.0 M, 0.000% Params, 126.72 KMac, 0.247% MACs|
          (0): ReLU(|0.0 M, 0.000% Params, 42.24 KMac, 0.082% MACs|)
          (1): ReLU(|0.0 M, 0.000% Params, 42.24 KMac, 0.082% MACs|)
          (2): ReLU(|0.0 M, 0.000% Params, 42.24 KMac, 0.082% MACs|)
        )
        (acts_ef): ModuleList(
          |0.0 M, 0.000% Params, 0.0 Mac, 0.000% MACs|
          (0): ReLU(|0.0 M, 0.000% Params, 0.0 Mac, 0.000% MACs|)
          (1): ReLU(|0.0 M, 0.000% Params, 0.0 Mac, 0.000% MACs|)
          (2): ReLU(|0.0 M, 0.000% Params, 0.0 Mac, 0.000% MACs|)
        )
        (sc): Conv1d(64, 96, kernel_size=(1,), stride=(1,), bias=False, |0.006 M, 1.498% Params, 337.92 KMac, 0.658% MACs|)
        (sc_bn): BatchNorm1d(96, eps=1e-05, momentum=0.1, affine=True, track_running_stats=True, |0.0 M, 0.047% Params, 10.56 KMac, 0.021% MACs|)
        (sc_ef): Conv1d(96, 128, kernel_size=(1,), stride=(1,), bias=False, |0.012 M, 2.996% Params, 0.0 Mac, 0.000% MACs|)
        (sc_bn_ef): BatchNorm1d(128, eps=1e-05, momentum=0.1, affine=True, track_running_stats=True, |0.0 M, 0.062% Params, 0.0 Mac, 0.000% MACs|)
        (sc_act): ReLU(|0.0 M, 0.000% Params, 5.28 KMac, 0.010% MACs|)
        (sc_act_ef): ReLU(|0.0 M, 0.000% Params, 0.0 Mac, 0.000% MACs|)
      )
      (2): EdgeFeatureConvBlock(
        |0.164 M, 40.009% Params, 26.435 MMac, 51.456% MACs|
        (convs): ModuleList(
          |0.057 M, 13.981% Params, 25.231 MMac, 49.113% MACs|
          (0): Conv2d(192, 128, kernel_size=(1, 1), stride=(1, 1), bias=False, |0.025 M, 5.992% Params, 10.813 MMac, 21.048% MACs|)
          (1): Conv2d(128, 128, kernel_size=(1, 1), stride=(1, 1), bias=False, |0.016 M, 3.995% Params, 7.209 MMac, 14.032% MACs|)
          (2): Conv2d(128, 128, kernel_size=(1, 1), stride=(1, 1), bias=False, |0.016 M, 3.995% Params, 7.209 MMac, 14.032% MACs|)
        )
        (convs_ef): ModuleList(
          |0.072 M, 17.477% Params, 0.0 Mac, 0.000% MACs|
          (0): Conv2d(128, 160, kernel_size=(1, 1), stride=(1, 1), bias=False, |0.02 M, 4.993% Params, 0.0 Mac, 0.000% MACs|)
          (1): Conv2d(160, 160, kernel_size=(1, 1), stride=(1, 1), bias=False, |0.026 M, 6.242% Params, 0.0 Mac, 0.000% MACs|)
          (2): Conv2d(160, 160, kernel_size=(1, 1), stride=(1, 1), bias=False, |0.026 M, 6.242% Params, 0.0 Mac, 0.000% MACs|)
        )
        (bns): ModuleList(
          |0.001 M, 0.187% Params, 337.92 KMac, 0.658% MACs|
          (0): BatchNorm2d(128, eps=1e-05, momentum=0.1, affine=True, track_running_stats=True, |0.0 M, 0.062% Params, 112.64 KMac, 0.219% MACs|)
          (1): BatchNorm2d(128, eps=1e-05, momentum=0.1, affine=True, track_running_stats=True, |0.0 M, 0.062% Params, 112.64 KMac, 0.219% MACs|)
          (2): BatchNorm2d(128, eps=1e-05, momentum=0.1, affine=True, track_running_stats=True, |0.0 M, 0.062% Params, 112.64 KMac, 0.219% MACs|)
        )
        (bns_ef): ModuleList(
          |0.001 M, 0.234% Params, 0.0 Mac, 0.000% MACs|
          (0): BatchNorm2d(160, eps=1e-05, momentum=0.1, affine=True, track_running_stats=True, |0.0 M, 0.078% Params, 0.0 Mac, 0.000% MACs|)
          (1): BatchNorm2d(160, eps=1e-05, momentum=0.1, affine=True, track_running_stats=True, |0.0 M, 0.078% Params, 0.0 Mac, 0.000% MACs|)
          (2): BatchNorm2d(160, eps=1e-05, momentum=0.1, affine=True, track_running_stats=True, |0.0 M, 0.078% Params, 0.0 Mac, 0.000% MACs|)
        )
        (acts): ModuleList(
          |0.0 M, 0.000% Params, 168.96 KMac, 0.329% MACs|
          (0): ReLU(|0.0 M, 0.000% Params, 56.32 KMac, 0.110% MACs|)
          (1): ReLU(|0.0 M, 0.000% Params, 56.32 KMac, 0.110% MACs|)
          (2): ReLU(|0.0 M, 0.000% Params, 56.32 KMac, 0.110% MACs|)
        )
        (acts_ef): ModuleList(
          |0.0 M, 0.000% Params, 0.0 Mac, 0.000% MACs|
          (0): ReLU(|0.0 M, 0.000% Params, 0.0 Mac, 0.000% MACs|)
          (1): ReLU(|0.0 M, 0.000% Params, 0.0 Mac, 0.000% MACs|)
          (2): ReLU(|0.0 M, 0.000% Params, 0.0 Mac, 0.000% MACs|)
        )
        (sc): Conv1d(96, 128, kernel_size=(1,), stride=(1,), bias=False, |0.012 M, 2.996% Params, 675.84 KMac, 1.316% MACs|)
        (sc_bn): BatchNorm1d(128, eps=1e-05, momentum=0.1, affine=True, track_running_stats=True, |0.0 M, 0.062% Params, 14.08 KMac, 0.027% MACs|)
        (sc_ef): Conv1d(128, 160, kernel_size=(1,), stride=(1,), bias=False, |0.02 M, 4.993% Params, 0.0 Mac, 0.000% MACs|)
        (sc_bn_ef): BatchNorm1d(160, eps=1e-05, momentum=0.1, affine=True, track_running_stats=True, |0.0 M, 0.078% Params, 0.0 Mac, 0.000% MACs|)
        (sc_act): ReLU(|0.0 M, 0.000% Params, 7.04 KMac, 0.014% MACs|)
        (sc_act_ef): ReLU(|0.0 M, 0.000% Params, 0.0 Mac, 0.000% MACs|)
      )
    )
    (fusion_block): Sequential(
      |0.074 M, 18.101% Params, 4.097 MMac, 7.975% MACs|
      (0): Conv1d(288, 256, kernel_size=(1,), stride=(1,), bias=False, |0.074 M, 17.976% Params, 4.055 MMac, 7.893% MACs|)
      (1): BatchNorm1d(256, eps=1e-05, momentum=0.1, affine=True, track_running_stats=True, |0.001 M, 0.125% Params, 28.16 KMac, 0.055% MACs|)
      (2): ReLU(|0.0 M, 0.000% Params, 14.08 KMac, 0.027% MACs|)
    )
    (fc): Sequential(
      |0.034 M, 8.272% Params, 34.056 KMac, 0.066% MACs|
      (0): Sequential(
        |0.033 M, 8.020% Params, 33.024 KMac, 0.064% MACs|
        (0): Linear(in_features=256, out_features=128, bias=True, |0.033 M, 8.020% Params, 32.896 KMac, 0.064% MACs|)
        (1): ReLU(|0.0 M, 0.000% Params, 128.0 Mac, 0.000% MACs|)
        (2): Dropout(p=0.1, inplace=False, |0.0 M, 0.000% Params, 0.0 Mac, 0.000% MACs|)
      )
      (1): Linear(in_features=128, out_features=8, bias=True, |0.001 M, 0.252% Params, 1.032 KMac, 0.002% MACs|)
    )
  )
)[0m
[2022-12-04 18:03:36,267] INFO: Computational complexity:       51.37 MMac
[2022-12-04 18:03:36,267] INFO: Number of parameters:           410.15 k
[2022-12-04 18:03:36,268] INFO: Using loss function CrossEntropyLoss() with options {}
[2022-12-04 18:03:51,231] INFO: Optimizer options: {}
[2022-12-04 18:03:51,287] INFO: --------------------------------------------------
…
