…
[2022-12-01 12:58:33,500] INFO: [0;37mWarning: module EdgeFeatureConvBlock is treated as a zero-op.[0m
[2022-12-01 12:58:33,500] INFO: [0;37mWarning: module Dropout is treated as a zero-op.[0m
[2022-12-01 12:58:33,501] INFO: [0;37mWarning: module ParticleNetEdge is treated as a zero-op.[0m
[2022-12-01 12:58:33,501] INFO: [0;37mWarning: module ParticleNetEdgeTagger is treated as a zero-op.[0m
[2022-12-01 12:58:34,350] INFO: [0;37mParticleNetEdgeTagger(
  |0.247 M, 100.000% Params, 57.997 MMac, 100.000% MACs|
  (pf_conv): FeatureConv(
    |0.001 M, 0.301% Params, 38.8 KMac, 0.067% MACs|
    (conv): Sequential(
      |0.001 M, 0.301% Params, 38.8 KMac, 0.067% MACs|
      (0): BatchNorm1d(20, eps=1e-05, momentum=0.1, affine=True, track_running_stats=True, |0.0 M, 0.016% Params, 2.0 KMac, 0.003% MACs|)
      (1): Conv1d(20, 32, kernel_size=(1,), stride=(1,), bias=False, |0.001 M, 0.259% Params, 32.0 KMac, 0.055% MACs|)
      (2): BatchNorm1d(32, eps=1e-05, momentum=0.1, affine=True, track_running_stats=True, |0.0 M, 0.026% Params, 3.2 KMac, 0.006% MACs|)
      (3): ReLU(|0.0 M, 0.000% Params, 1.6 KMac, 0.003% MACs|)
    )
  )
  (sv_conv): FeatureConv(
    |0.0 M, 0.177% Params, 2.35 KMac, 0.004% MACs|
    (conv): Sequential(
      |0.0 M, 0.177% Params, 2.35 KMac, 0.004% MACs|
      (0): BatchNorm1d(11, eps=1e-05, momentum=0.1, affine=True, track_running_stats=True, |0.0 M, 0.009% Params, 110.0 Mac, 0.000% MACs|)
      (1): Conv1d(11, 32, kernel_size=(1,), stride=(1,), bias=False, |0.0 M, 0.142% Params, 1.76 KMac, 0.003% MACs|)
      (2): BatchNorm1d(32, eps=1e-05, momentum=0.1, affine=True, track_running_stats=True, |0.0 M, 0.026% Params, 320.0 Mac, 0.001% MACs|)
      (3): ReLU(|0.0 M, 0.000% Params, 160.0 Mac, 0.000% MACs|)
    )
  )
  (pn): ParticleNetEdge(
    |0.246 M, 99.522% Params, 57.956 MMac, 99.929% MACs|
    (edge_convs): ModuleList(
      |0.123 M, 49.759% Params, 53.228 MMac, 91.778% MACs|
      (0): EdgeFeatureConvBlock(
        |0.015 M, 6.000% Params, 6.625 MMac, 11.422% MACs|
        (convs): ModuleList(
          |0.012 M, 4.966% Params, 6.193 MMac, 10.678% MACs|
          (0): Conv2d(64, 64, kernel_size=(1, 1), stride=(1, 1), bias=False, |0.004 M, 1.655% Params, 2.064 MMac, 3.559% MACs|)
          (1): Conv2d(64, 64, kernel_size=(1, 1), stride=(1, 1), bias=False, |0.004 M, 1.655% Params, 2.064 MMac, 3.559% MACs|)
          (2): Conv2d(64, 64, kernel_size=(1, 1), stride=(1, 1), bias=False, |0.004 M, 1.655% Params, 2.064 MMac, 3.559% MACs|)
        )
        (bns): ModuleList(
          |0.0 M, 0.155% Params, 193.536 KMac, 0.334% MACs|
          (0): BatchNorm2d(64, eps=1e-05, momentum=0.1, affine=True, track_running_stats=True, |0.0 M, 0.052% Params, 64.512 KMac, 0.111% MACs|)
          (1): BatchNorm2d(64, eps=1e-05, momentum=0.1, affine=True, track_running_stats=True, |0.0 M, 0.052% Params, 64.512 KMac, 0.111% MACs|)
          (2): BatchNorm2d(64, eps=1e-05, momentum=0.1, affine=True, track_running_stats=True, |0.0 M, 0.052% Params, 64.512 KMac, 0.111% MACs|)
        )
        (acts): ModuleList(
          |0.0 M, 0.000% Params, 96.768 KMac, 0.167% MACs|
          (0): ReLU(|0.0 M, 0.000% Params, 32.256 KMac, 0.056% MACs|)
          (1): ReLU(|0.0 M, 0.000% Params, 32.256 KMac, 0.056% MACs|)
          (2): ReLU(|0.0 M, 0.000% Params, 32.256 KMac, 0.056% MACs|)
        )
        (sc): Conv1d(32, 64, kernel_size=(1,), stride=(1,), bias=False, |0.002 M, 0.828% Params, 129.024 KMac, 0.222% MACs|)
        (sc_bn): BatchNorm1d(64, eps=1e-05, momentum=0.1, affine=True, track_running_stats=True, |0.0 M, 0.052% Params, 8.064 KMac, 0.014% MACs|)
        (sc_act): ReLU(|0.0 M, 0.000% Params, 4.032 KMac, 0.007% MACs|)
      )
      (1): EdgeFeatureConvBlock(
        |0.038 M, 15.207% Params, 16.324 MMac, 28.145% MACs|
        (convs): ModuleList(
          |0.031 M, 12.414% Params, 15.483 MMac, 26.696% MACs|
          (0): Conv2d(128, 96, kernel_size=(1, 1), stride=(1, 1), bias=False, |0.012 M, 4.966% Params, 6.193 MMac, 10.678% MACs|)
          (1): Conv2d(96, 96, kernel_size=(1, 1), stride=(1, 1), bias=False, |0.009 M, 3.724% Params, 4.645 MMac, 8.009% MACs|)
          (2): Conv2d(96, 96, kernel_size=(1, 1), stride=(1, 1), bias=False, |0.009 M, 3.724% Params, 4.645 MMac, 8.009% MACs|)
        )
        (bns): ModuleList(
          |0.001 M, 0.233% Params, 290.304 KMac, 0.501% MACs|
          (0): BatchNorm2d(96, eps=1e-05, momentum=0.1, affine=True, track_running_stats=True, |0.0 M, 0.078% Params, 96.768 KMac, 0.167% MACs|)
          (1): BatchNorm2d(96, eps=1e-05, momentum=0.1, affine=True, track_running_stats=True, |0.0 M, 0.078% Params, 96.768 KMac, 0.167% MACs|)
          (2): BatchNorm2d(96, eps=1e-05, momentum=0.1, affine=True, track_running_stats=True, |0.0 M, 0.078% Params, 96.768 KMac, 0.167% MACs|)
        )
        (acts): ModuleList(
          |0.0 M, 0.000% Params, 145.152 KMac, 0.250% MACs|
          (0): ReLU(|0.0 M, 0.000% Params, 48.384 KMac, 0.083% MACs|)
          (1): ReLU(|0.0 M, 0.000% Params, 48.384 KMac, 0.083% MACs|)
          (2): ReLU(|0.0 M, 0.000% Params, 48.384 KMac, 0.083% MACs|)
        )
        (sc): Conv1d(64, 96, kernel_size=(1,), stride=(1,), bias=False, |0.006 M, 2.483% Params, 387.072 KMac, 0.667% MACs|)
        (sc_bn): BatchNorm1d(96, eps=1e-05, momentum=0.1, affine=True, track_running_stats=True, |0.0 M, 0.078% Params, 12.096 KMac, 0.021% MACs|)
        (sc_act): ReLU(|0.0 M, 0.000% Params, 6.048 KMac, 0.010% MACs|)
      )
      (2): EdgeFeatureConvBlock(
        |0.071 M, 28.552% Params, 30.28 MMac, 52.210% MACs|
        (convs): ModuleList(
          |0.057 M, 23.173% Params, 28.901 MMac, 49.833% MACs|
          (0): Conv2d(192, 128, kernel_size=(1, 1), stride=(1, 1), bias=False, |0.025 M, 9.931% Params, 12.386 MMac, 21.357% MACs|)
          (1): Conv2d(128, 128, kernel_size=(1, 1), stride=(1, 1), bias=False, |0.016 M, 6.621% Params, 8.258 MMac, 14.238% MACs|)
          (2): Conv2d(128, 128, kernel_size=(1, 1), stride=(1, 1), bias=False, |0.016 M, 6.621% Params, 8.258 MMac, 14.238% MACs|)
        )
        (bns): ModuleList(
          |0.001 M, 0.310% Params, 387.072 KMac, 0.667% MACs|
          (0): BatchNorm2d(128, eps=1e-05, momentum=0.1, affine=True, track_running_stats=True, |0.0 M, 0.103% Params, 129.024 KMac, 0.222% MACs|)
          (1): BatchNorm2d(128, eps=1e-05, momentum=0.1, affine=True, track_running_stats=True, |0.0 M, 0.103% Params, 129.024 KMac, 0.222% MACs|)
          (2): BatchNorm2d(128, eps=1e-05, momentum=0.1, affine=True, track_running_stats=True, |0.0 M, 0.103% Params, 129.024 KMac, 0.222% MACs|)
        )
        (acts): ModuleList(
          |0.0 M, 0.000% Params, 193.536 KMac, 0.334% MACs|
          (0): ReLU(|0.0 M, 0.000% Params, 64.512 KMac, 0.111% MACs|)
          (1): ReLU(|0.0 M, 0.000% Params, 64.512 KMac, 0.111% MACs|)
          (2): ReLU(|0.0 M, 0.000% Params, 64.512 KMac, 0.111% MACs|)
        )
        (sc): Conv1d(96, 128, kernel_size=(1,), stride=(1,), bias=False, |0.012 M, 4.966% Params, 774.144 KMac, 1.335% MACs|)
        (sc_bn): BatchNorm1d(128, eps=1e-05, momentum=0.1, affine=True, track_running_stats=True, |0.0 M, 0.103% Params, 16.128 KMac, 0.028% MACs|)
        (sc_act): ReLU(|0.0 M, 0.000% Params, 8.064 KMac, 0.014% MACs|)
      )
    )
    (edge_feature_convs): EdgeFeatureConvBlock(
      |0.015 M, 6.000% Params, 0.0 Mac, 0.000% MACs|
      (convs): ModuleList(
        |0.012 M, 4.966% Params, 0.0 Mac, 0.000% MACs|
        (0): Conv2d(64, 64, kernel_size=(1, 1), stride=(1, 1), bias=False, |0.004 M, 1.655% Params, 0.0 Mac, 0.000% MACs|)
        (1): Conv2d(64, 64, kernel_size=(1, 1), stride=(1, 1), bias=False, |0.004 M, 1.655% Params, 0.0 Mac, 0.000% MACs|)
        (2): Conv2d(64, 64, kernel_size=(1, 1), stride=(1, 1), bias=False, |0.004 M, 1.655% Params, 0.0 Mac, 0.000% MACs|)
      )
      (bns): ModuleList(
        |0.0 M, 0.155% Params, 0.0 Mac, 0.000% MACs|
        (0): BatchNorm2d(64, eps=1e-05, momentum=0.1, affine=True, track_running_stats=True, |0.0 M, 0.052% Params, 0.0 Mac, 0.000% MACs|)
        (1): BatchNorm2d(64, eps=1e-05, momentum=0.1, affine=True, track_running_stats=True, |0.0 M, 0.052% Params, 0.0 Mac, 0.000% MACs|)
        (2): BatchNorm2d(64, eps=1e-05, momentum=0.1, affine=True, track_running_stats=True, |0.0 M, 0.052% Params, 0.0 Mac, 0.000% MACs|)
      )
      (acts): ModuleList(
        |0.0 M, 0.000% Params, 0.0 Mac, 0.000% MACs|
        (0): ReLU(|0.0 M, 0.000% Params, 0.0 Mac, 0.000% MACs|)
        (1): ReLU(|0.0 M, 0.000% Params, 0.0 Mac, 0.000% MACs|)
        (2): ReLU(|0.0 M, 0.000% Params, 0.0 Mac, 0.000% MACs|)
      )
      (sc): Conv1d(32, 64, kernel_size=(1,), stride=(1,), bias=False, |0.002 M, 0.828% Params, 0.0 Mac, 0.000% MACs|)
      (sc_bn): BatchNorm1d(64, eps=1e-05, momentum=0.1, affine=True, track_running_stats=True, |0.0 M, 0.052% Params, 0.0 Mac, 0.000% MACs|)
      (sc_act): ReLU(|0.0 M, 0.000% Params, 0.0 Mac, 0.000% MACs|)
    )
    (fusion_block): Sequential(
      |0.074 M, 30.000% Params, 4.693 MMac, 8.092% MACs|
      (0): Conv1d(288, 256, kernel_size=(1,), stride=(1,), bias=False, |0.074 M, 29.794% Params, 4.645 MMac, 8.009% MACs|)
      (1): BatchNorm1d(256, eps=1e-05, momentum=0.1, affine=True, track_running_stats=True, |0.001 M, 0.207% Params, 32.256 KMac, 0.056% MACs|)
      (2): ReLU(|0.0 M, 0.000% Params, 16.128 KMac, 0.028% MACs|)
    )
    (fc): Sequential(
      |0.034 M, 13.762% Params, 34.185 KMac, 0.059% MACs|
      (0): Sequential(
        |0.033 M, 13.293% Params, 33.024 KMac, 0.057% MACs|
        (0): Linear(in_features=256, out_features=128, bias=True, |0.033 M, 13.293% Params, 32.896 KMac, 0.057% MACs|)
        (1): ReLU(|0.0 M, 0.000% Params, 128.0 Mac, 0.000% MACs|)
        (2): Dropout(p=0.1, inplace=False, |0.0 M, 0.000% Params, 0.0 Mac, 0.000% MACs|)
      )
      (1): Linear(in_features=128, out_features=9, bias=True, |0.001 M, 0.469% Params, 1.161 KMac, 0.002% MACs|)
    )
  )
)[0m
[2022-12-01 12:58:34,352] INFO: Computational complexity:       58.0 MMac
[2022-12-01 12:58:34,352] INFO: Number of parameters:           247.46 k
[2022-12-01 12:58:34,352] INFO: Using loss function CrossEntropyLoss() with options {}
[2022-12-01 12:58:35,924] INFO: Optimizer options: {}
[2022-12-01 12:58:35,929] INFO: --------------------------------------------------
…
